backend/AI/model_weightsV1.pth (torch, 157617 bytes, 13 tensors)

board_net.0.weight f4 [32, 15, 3, 3]
000000 f5 f1 2d be 51 b1 70 be 10 0a 3e 3c 32 b8 f8 bd
       -0.1698683 -0.23505141 0.011599079 -0.121445075
000010 4d 86 43 bd d7 38 ab bd 02 7b 00 be 7d 5b b0 3d
       -0.0477355 -0.08360451 -0.12546924 0.086112
000020 74 7f a1 bd b5 bc 35 3d f7 2c df bd e9 39 96 3d
       -0.07885638 0.04436942 -0.10897248 0.07335264
000030 aa d5 6d 3d a4 06 94 3c b1 4a 7a 3d c5 15 fc bd
       0.058065094 0.018069573 0.061106388 -0.1230884
000040 2f f9 9a bd 78 25 7a bd bb 38 09 3d 73 38 82 be
       -0.07567059 -0.06107089 0.033501368 -0.25433692
000050 a7 33 93 3b 81 59 4b 3d b0 a6 77 be 69 c7 7f bd
       0.0044922414 0.049645904 -0.2418468 -0.06244603
000060 7b 2c 3f be 3a 03 00 3e 49 53 2b be be 24 3d 3e
       -0.18669312 0.12501231 -0.1673099 0.18471047
000070 71 db cb 3b 4b f9 49 3e ac 0a 74 3e 98 4b 6e be
       0.006221228 0.19724004 0.23832196 -0.23271024
000080 27 ce 06 3d 56 6a 42 bd 12 51 01 3d 5f 20 cf bd
       0.032911446 -0.04746469 0.031571455 -0.10113596
000090 5a 18 d6 3c d8 76 e0 3b 87 1d 99 bd 2e cc 3c be
       0.026134659 0.006850105 -0.07476335 -0.18437263
0000a0 85 6d 82 bd 36 55 dc 3d 54 a8 ed bd 42 e5 96 bd
       -0.063685454 0.1075844 -0.11604372 -0.07367946
0000b0 2d 61 14 be 01 67 8a 3d e2 72 10 be 68 e8 5e be
       -0.14490195 0.06757928 -0.14106324 -0.21768343
0000c0 7f c3 fd 3d b2 d5 4f 3c de 81 3f 3e 0a 65 21 be
       0.123908035 0.012685226 0.18701884 -0.157612
0000d0 8b b7 a9 bc b2 81 f5 bd b0 53 07 3c ee 29 3b be
       -0.020717403 -0.11987628 0.008259699 -0.18277714
0000e0 c8 31 35 3d cb 67 90 be 92 6d 55 be c5 f6 52 3d
       0.04423693 -0.28204188 -0.20842579 0.05150487
0000f0 8c c8 10 be 45 7d 06 be 9c 35 c3 bc a9 03 fe bd
       -0.14139003 -0.13133724 -0.023829274 -0.12403042
000100 a2 06 62 be 41 33 53 bd b9 e1 3a 3e 84 c1 3f bd
       -0.22072843 -0.05156255 0.18250169 -0.04681541
000110 62 6c 94 be a0 be 2e be c9 6a 45 be ba a5 a5 3b
       -0.2898894 -0.17064905 -0.19279017 0.0050551565
000120 3a 93 38 be 91 fa d2 bd ab 00 5d be ea f4 44 bd
       -0.18024912 -0.10301698 -0.21582286 -0.04808513
000130 df fd d9 3d 7e 4d 85 3d 6e 2c 45 3d 78 59 a0 bd
       0.10644125 0.06508921 0.048138075 -0.07829565
000140 8d 4d 43 bd d6 4d 7d be 72 99 49 3e 90 5a 6d be
       -0.04768138 -0.24736723 0.19687441 -0.23179078
000150 2d 03 76 be 0b a0 40 3e 13 59 a6 be 1b 40 9f bd
       -0.24024649 0.18811052 -0.32489833 -0.07775899
000160 27 9f f4 3c 49 6b de 3b f1 11 3a be 13 83 ab bd
       0.029861046 0.0067876917 -0.18170907 -0.0837461
000170 c7 be 89 bd 9b 3b 50 be 04 f7 fe 3b bb 71 15 bd
       -0.06725841 -0.20335238 0.0077809114 -0.036485415
000180 ce ce cb bc 2e f3 07 3e c9 7d 70 bd bb 49 1a 3d
       -0.024878886 0.1327636 -0.058713708 0.03766797
000190 f1 e9 be bd e0 26 a0 3d 17 6b 39 3d b3 2f 29 bd
       -0.093219645 0.07819915 0.045268144 -0.041305255
0001a0 0e f2 70 3e 3b e2 69 3c b3 cb 18 3e 48 21 04 3e
       0.23529837 0.014275129 0.14921455 0.12903321
0001b0 dd 82 28 3e d5 ce 87 3d aa fb af be 91 ca 23 bd
       0.1645617 0.06631247 -0.34371692 -0.039988104
0001c0 5b 2f 08 3e 80 cb 57 be 5c 7c 98 bd e1 76 6a 3d
       0.13299315 -0.21073723 -0.07445595 0.057242278
0001d0 b3 d9 cf 3d 5a 7f b3 bd f4 cb 73 be 16 c2 f4 be
       0.10148945 -0.08764525 -0.2380827 -0.47804326
0001e0 ba b4 cf 3d 72 94 e8 3d 86 eb 81 be 75 bb 8b 3d
       0.10141893 0.11356439 -0.25375003 0.06822864
0001f0 d2 f4 d8 bd 3d 5d a9 bd cd bd 25 be 6c a3 39 bd
       -0.10593571 -0.08269737 -0.16185685 -0.045321867
000200 77 6f 62 be 99 c3 1d 3c 25 ac bd bd 3b 3c 5e 3d
       -0.22112833 0.009629154 -0.092613496 0.05425666
000210 17 a2 0c 3e c4 91 e1 bd 3e 48 a6 3d 61 a5 48 be
       0.13733707 -0.11014131 0.08119248 -0.19594337
000220 75 51 97 3c 18 96 98 bd 96 5e 75 be 79 ea 30 be
       0.018471459 -0.07450503 -0.23961863 -0.17276944
000230 bd 1c 06 3d cb e5 f2 3d 9e c2 83 3d 8f 39 41 bc
       0.03274225 0.11860236 0.06433605 -0.011793508
000240 8d b4 9b bd 14 af 03 3e b2 62 05 3e 66 b4 33 bb
       -0.07602797 0.12859756 0.1302593 -0.0027420758
000250 53 d0 06 bc 3b 11 c4 bd 1e 2e 25 3e 45 7f 95 3d
       -0.008228379 -0.09573599 0.16130874 0.07299665
000260 05 05 89 bb de 0f 6f 3e c9 6f a7 bd c9 40 8c 3c
       -0.0041815066 0.23345897 -0.08175618 0.017120736
000270 4f 48 b9 3d dc 63 38 3e f4 f6 58 3e 3d 2c 57 3c
       0.09046995 0.18006843 0.21187955 0.013133106
000280 56 1f 98 be f4 63 3e 3e d1 45 67 3d 3f 8f 0f be
       -0.29711407 0.18592817 0.056463066 -0.14019488
000290 a4 1d e6 3c 10 99 e3 3c a0 89 21 3d d2 e5 b9 bd
       0.028090306 0.027782947 0.03943789 -0.09077038
0002a0 7a 17 77 ba 86 43 31 3e bd 2e 63 be 2e d5 9c be
       -0.00094258005 0.17310914 -0.22185798 -0.30631393
0002b0 0b 04 73 3d 23 c7 77 3d 3d 7d 29 3e b1 3a ad 3d
       0.059330028 0.060492646 0.16551681 0.0845846
0002c0 32 66 83 be 31 96 31 3e 7e 5b a0 3c 2c 14 4f be
       -0.25663906 0.1734245 0.019574877 -0.20222539
0002d0 ca 3b 6c bd ad 3e d9 3d 6a 62 b1 3e 85 97 4b 3e
       -0.057674207 0.106076576 0.34645396 0.19882019
0002e0 12 d6 25 be e3 37 82 3c 15 d6 4c 3d a8 24 54 3c
       -0.16194943 0.01589579 0.050008852 0.012948193
0002f0 b1 de e0 3d d4 16 17 3d 6f 25 6d bc 3c fc 84 bc
       0.10979975 0.036887005 -0.014474257 -0.016233556
000300 1d 00 9e 3d fe af 01 be 6f 46 63 3d 7a 85 da 3b
       0.07714865 -0.12664792 0.055487093 0.0066687437
000310 3f c0 29 bd f6 5d d5 3d f6 73 18 bb c2 e9 f1 bc
       -0.041443106 0.10418312 -0.0023262477 -0.02953041
000320 38 ab 11 3e 07 69 52 3e 1e c2 68 bd 0f de a5 bc
       0.14225471 0.20547877 -0.05682575 -0.020247487
000330 15 5e ec 3d 3c 70 0c be fc 93 47 3d ca 4e 3c be
       0.11541382 -0.13714689 0.048725113 -0.1838943
000340 de fb 84 3d 0b a0 19 be 92 f8 1a 3e 85 be 83 3e
       0.06493352 -0.15002458 0.15133885 0.25731292
000350 6f a2 96 3d ea fb 83 3c 94 15 6b 3d 1a 1b f3 3c
       0.073552005 0.016111333 0.057393625 0.029676009
000360 a9 2f 3e 3e c7 28 02 3d 56 44 a0 be 94 b6 13 be
       0.18572868 0.03177717 -0.31302136 -0.14425117
000370 c4 c6 b0 3c cb 77 5d 3c 4f ad 2f be 20 5c 41 be
       0.021579154 0.01351733 -0.17155956 -0.18882799
000380 51 55 7f be f0 07 8a bd 1c a2 54 be a6 47 1a be
       -0.2493489 -0.06739795 -0.20764965 -0.15066394
000390 08 43 16 bd 47 62 2a 3e 15 48 35 be ce 2d 0b 3e
       -0.03668502 0.16639052 -0.17703278 0.13591692
0003a0 7e 44 a3 3b c1 71 f1 3d 15 df b8 3d a4 de 44 3e
       0.00498253 0.11789275 0.090269245 0.19225556
0003b0 78 95 0b bd 38 79 03 be 02 f6 88 3d b7 50 c3 bd
       -0.03407809 -0.1283921 0.06687547 -0.095368795
0003c0 0c d1 f2 bd 95 99 32 3e ec c5 98 bd 82 19 d0 3d
       -0.11856279 0.174414 -0.074596256 0.10161115
0003d0 8b 05 c7 bd 89 7f 0f be 84 4d 80 3d 99 30 f8 bc
       -0.09717854 -0.14013495 0.06264785 -0.03029661
0003e0 dc dd 04 3e 68 7a 20 3d 63 4a 89 3e c4 4c 5f bc
       0.12975258 0.039179236 0.26814565 -0.013629142
0003f0 82 81 31 be 8a 30 79 bd 8a 34 6c bd ab c9 59 be
       -0.1733456 -0.060837306 -0.057667293 -0.21268336

board_net.0.bias f4 [32]
000000 2b 23 8e bd 6d 95 8c bd ee 5f 1a be bc 2c 6d bc
       -0.069403015 -0.06864438 -0.15075657 -0.014475998
000010 37 84 e2 bd 85 27 99 3c 43 5f d9 bb 70 74 a7 bc
       -0.11060374 0.018695602 -0.0066336705 -0.020441264
000020 ea fe ae bc 90 bd 15 be 2d 1e c2 bd a5 40 da bb
       -0.021361787 -0.14623094 -0.09478412 -0.0066605383
000030 c1 76 06 3d 9f f5 c3 bd 3e 46 ce 3b b8 63 39 bd
       0.032828096 -0.09568333 0.0062949946 -0.045261115
000040 94 e9 34 bb aa 6e 06 3d 13 93 b6 bc 63 c7 e2 ba
       -0.0027605044 0.03282038 -0.022286927 -0.0017301854
000050 de c4 cf bd c0 b5 14 bc 10 5a 2f bc c9 be c5 bc
       -0.10144971 -0.009076536 -0.010702625 -0.024138825
000060 f8 ee 02 bd ea 88 dd 3b 2f 51 ba bd 03 af c0 3c
       -0.03196618 0.006760706 -0.09097516 0.023520952
000070 b3 89 bd bd ba f9 af 3d e8 17 ac bd e8 f6 07 3d
       -0.0925478 0.085925534 -0.08402997 0.033194453

board_net.2.weight f4 [64, 32, 3, 3]
000000 c1 77 70 bd 80 17 25 3d f6 f9 2a bd 2b 3c 27 3e
       -0.058707956 0.040305614 -0.041742288 0.16331546
000010 e5 d2 ad 3d 5e 14 c9 bb ed 8c e7 bc 78 f8 03 bd
       0.084874906 -0.006136461 -0.02826544 -0.03221938
000020 54 6d 1f be 11 bd 4d 3d 5a 37 4c bd d9 48 4f bd
       -0.15569049 0.050229136 -0.049857475 -0.050606582
000030 d4 3c 7b bd 3e f8 00 be bb 02 f8 3c 98 86 09 3e
       -0.061337307 -0.12594697 0.03027474 0.1343025
000040 81 d1 19 3d 42 33 5b 3d cc e1 db bc 88 a0 c4 3d
       0.037553314 0.05351568 -0.026841067 0.096009314
000050 d8 03 28 bd ca 9f ab bd a5 4e 94 bd 8e b9 01 3e
       -0.04101929 -0.08380087 -0.07241563 0.1266844
000060 60 f4 53 be 75 a0 9f 3d 23 47 1f 3c c6 97 af bc
       -0.2069869 0.077942766 0.00972155 -0.021434676
000070 99 9c 1e 3b 57 70 81 bd 2b 55 4c 3d 03 66 84 3d
       0.0024202226 -0.06320255 0.04988591 0.0646477
000080 f1 22 46 3d 65 63 ff bd e6 41 b6 3d 6a 96 d9 3c
       0.048373166 -0.1247013 0.08899288 0.02656098
000090 96 20 b2 3c fa 22 3f 3d f9 1f e9 3c ed 78 93 3d
       0.021744054 0.046664216 0.028457629 0.07200799
0000a0 d1 4f 85 bd 9c 65 be bd ba f6 af bd 3a 26 70 bc
       -0.065093644 -0.09296724 -0.08591981 -0.014657551
0000b0 b9 71 ee 3c fb 97 04 be 5e df 07 be 75 c8 85 bd
       0.029106962 -0.12948601 -0.13268802 -0.06532375
0000c0 36 ba b8 3b 69 a5 d2 3d d7 de 49 3c 58 bf 78 bd
       0.0056374324 0.10285456 0.012321196 -0.060729355
0000d0 50 00 07 3d ce a2 f9 bb 6c e3 96 bd a2 f7 2f 3d
       0.032959282 -0.007618285 -0.07367596 0.04296077
0000e0 43 a9 19 bc 96 d7 eb bd 29 c1 2d be 8d a6 0a 3e
       -0.009378734 -0.11515729 -0.16968216 0.13540097
0000f0 4b 23 0f bd 76 45 75 bd c6 a4 29 bc c5 08 d0 bd
       -0.034945767 -0.059880696 -0.010354226 -0.10157923
000100 61 3a 14 be 44 5e 67 bd 2b c6 1b be 28 67 fe bc
       -0.14475395 -0.056486383 -0.15212314 -0.031055048
000110 1b e4 0c bd 92 a2 ac bb cc 4a 80 bd c3 be 92 bc
       -0.034397226 -0.0052684033 -0.06264266 -0.017913228
000120 44 da 2e be 0d 0d 77 bd 20 01 5d bd 3f 50 d4 3d
       -0.17075449 -0.06031518 -0.05395615 0.10366868
000130 1f 1b 2c bd 35 51 39 bd 77 14 bb bd 61 2c c1 3d
       -0.042018052 -0.04524346 -0.09134763 0.09432293
000140 15 de 08 3e ed 62 41 bd c8 d3 11 bd 44 4a 84 bd
       0.13365968 -0.047213484 -0.03560236 -0.064594775
000150 a9 4b 7b bd 32 23 e2 bd e4 bb d9 3d 89 ea a0 bd
       -0.061351452 -0.11041869 0.106315404 -0.07857234
000160 82 af e9 bd 46 11 4c 3d 99 30 94 3d 86 42 8c bd
       -0.114104286 0.04982116 0.07235832 -0.06848626
000170 b5 19 98 bc ef f2 80 3c a5 cb 3e bd 35 1d d5 bb
       -0.018566946 0.01574084 -0.04658093 -0.006503726
000180 12 33 2a 3c 41 a7 9c 3c 25 d8 19 be f4 c8 19 bd
       0.010388153 0.019122722 -0.15023859 -0.03754516
000190 33 a8 77 bd 78 11 57 3b 1b 49 0e 3c a7 71 c6 bc
       -0.06046314 0.0032816809 0.008684422 -0.024224116
0001a0 64 41 c5 3d bc 33 14 be b9 65 25 bd 58 35 ae 3d
       0.09631613 -0.1447286 -0.040380213 0.08506268
0001b0 10 9e ae bd 27 14 89 bd 00 89 db bd 5e 25 44 bd
       -0.08526242 -0.06693297 -0.1071949 -0.0478872
0001c0 0c 33 ef bd f3 2c af 3c 70 fb f0 3b f8 1f 1e bd
       -0.11679658 0.021383738 0.0073541924 -0.038604707
0001d0 e0 fb a8 bd e3 9d 0b 3d 32 62 be bc 35 24 92 bd
       -0.08251166 0.03408612 -0.023240183 -0.07135812
0001e0 a8 cd ad 3d 6c 94 d5 bb d1 cb 5d be e4 3d 0c be
       0.084864914 -0.0065179374 -0.21659781 -0.13695484
0001f0 25 32 08 be f5 08 b5 3d af 1d d2 3d a0 5c d9 3d
       -0.13300379 0.08839599 0.10259568 0.1061337
000200 39 09 b0 bd a9 5f 16 3e c9 bd 91 3d 75 e3 a4 bd
       -0.08595509 0.14684929 0.07116277 -0.080511965
000210 49 ec 38 bc 54 69 d3 bc e3 d2 c1 bd a6 57 3d be
       -0.0112868035 -0.02580706 -0.094640516 -0.18490466
000220 32 c0 50 bd ed 8e 99 bd 84 9e 2f bd 46 b1 6a bd
       -0.05096454 -0.07497964 -0.04287578 -0.057297967
000230 43 1d ef bd 29 ab ba bc c2 08 89 bd 68 52 e4 3d
       -0.11675503 -0.022786694 -0.066911235 0.1114853
000240 8c ae d5 bd d0 3b d9 3c cd 01 7c bd e9 51 a1 3d
       -0.10433683 0.026517779 -0.061525155 0.07876951
000250 a3 93 90 3c 44 ee 90 3d 9b 6b d0 bd a5 29 81 3e
       0.017648524 0.070766956 -0.10176774 0.25227085
000260 02 5f a6 3d b2 e4 3c be fb 0a a9 bd f6 5d 8a bd
       0.0812359 -0.18446615 -0.082540475 -0.06756203
000270 cc 03 3b be 03 f4 de bd cc 39 0a bc 47 f3 70 3c
       -0.18263167 -0.10886385 -0.008436631 0.014706439
000280 82 fa d0 3a a2 ff 94 bc 00 04 3f bc 77 2c f0 3d
       0.0015943798 -0.018188301 -0.0116586685 0.11727231
000290 94 5c bb bd 4f 6c 5e bd 97 1d 62 bd 3e 24 a5 3b
       -0.09148517 -0.05430251 -0.055204 0.005039721
0002a0 62 cd e4 3b 98 97 cc bd 3e b9 52 3b 5a ac 5f 3c
       0.0069824914 -0.09989852 0.003215387 0.013651932
0002b0 dc bb fb bc d0 a6 f7 bc a3 14 b9 3d 4d 0a 4b 3c
       -0.030729227 -0.03023091 0.09037139 0.012392593
0002c0 c0 d9 44 3d e5 b6 b9 bd 65 17 d8 3d 4a 61 91 bc
       0.048059225 -0.090680875 0.10551337 -0.017746586
0002d0 22 e0 a0 bd 96 b3 4a bb 94 7e 8c bd 89 7e ac bd
       -0.0785525 -0.0030929795 -0.0686008 -0.08422572
0002e0 71 0b d8 bc 4e 83 f9 bd ff 5f 0f be 2d 33 07 3e
       -0.026372643 -0.121832475 -0.14001463 0.13203116
0002f0 90 a2 5d bd 22 29 18 3b 9f 53 a3 bd b0 27 0f be
       -0.05411011 0.0023217876 -0.07974934 -0.13979983
000300 bc 0d 37 be 3c c2 9a bd 70 14 43 bd 8d 5e 47 bd
       -0.17876333 -0.075565785 -0.047626913 -0.048674155
000310 98 b0 15 3b c2 53 57 bd 03 a2 1f bc 71 36 39 bd
       0.0022840854 -0.052570112 -0.009743216 -0.045217935
000320 31 3e 1e be 1e 95 c1 bd 20 e7 bf bd ab d3 0b 3d
       -0.15453412 -0.0945227 -0.093702555 0.03413741
000330 91 1a 3b 3c d7 04 a5 3c 92 8d 74 3d a5 23 0a 3d
       0.011419908 0.02014391 0.059705324 0.0337254
000340 ca f8 0b bd a2 19 59 bd ce 8f 23 be 05 ba 03 be
       -0.03417281 -0.05300296 -0.15972826 -0.1286393
000350 81 65 13 3c 4b b6 e9 bd 06 a9 8c bd 15 e3 52 3e
       0.008996368 -0.11411723 -0.06868176 0.20594437
000360 92 50 72 bd 12 23 89 3d 5b 20 eb bd 38 f6 7d bd
       -0.05915887 0.06696142 -0.11480781 -0.06200239
000370 de 3d 01 be c6 1e 32 be 1b 0d 61 3d 0f b1 12 3d
       -0.12621257 -0.17394552 0.05494414 0.035813387
000380 4b ad d6 bd 95 2c 86 bc be bb ce bc 37 e2 0f be
       -0.10482272 -0.01637868 -0.025236007 -0.14051138
000390 66 e5 16 bd c9 ae c9 3d 63 b9 a9 bc 45 ea f8 bd
       -0.036839865 0.09847791 -0.020718282 -0.12154058
0003a0 4a f6 a6 3d 29 f0 5f bc f0 75 91 bd a1 d5 97 bd
       0.08152445 -0.0136680985 -0.07102573 -0.07413793
0003b0 75 33 12 bd b1 a7 bf bd 08 df e2 3c bb b2 97 bd
       -0.035693604 -0.093581565 0.02769424 -0.07407137
0003c0 25 69 2e be bf 75 2a bc 19 a9 26 bd 26 ea e2 bc
       -0.17032297 -0.010404049 -0.040688608 -0.027699541
0003d0 32 83 8a 3d 73 73 be bc 14 e3 8e bd 6f 85 67 bd
       0.06763305 -0.02324841 -0.069769055 -0.056523737
0003e0 86 5f 08 3e 60 34 c7 bd f8 61 5c 3d 8b c8 13 3d
       0.1331769 -0.097267866 0.053804368 0.036079925
0003f0 88 b4 0d be 81 a0 c1 3d 8f dc 0c 3d 30 79 de 3c
       -0.13838398 0.09454442 0.03439003 0.027157396

board_net.2.bias f4 [64]
000000 b3 b0 ca bd fb bb 09 be 8c 4c 0c be 39 3a 9a bd
       -0.09896984 -0.13450615 -0.13701075 -0.07530636
000010 1b 36 5c bd eb 32 90 bd c6 16 eb bd 5f 3b da bd
       -0.053762536 -0.07040962 -0.11478953 -0.106558554
000020 8d 72 ff 3c 5e bd f3 bd ef 2b cf bd 18 76 c0 bd
       0.031182552 -0.11901353 -0.101158015 -0.093975246
000030 df 6f 04 bd 3d 54 cc bd 6d 06 0c be 8d cf a8 bd
       -0.03233325 -0.09977005 -0.13674326 -0.08242712
000040 a4 f2 cc bd 8b 71 95 bd 7f 6e bb bd 3e 88 e4 bd
       -0.100072175 -0.07297047 -0.09151935 -0.11158799
000050 bd 36 c7 bd 83 5a db bd 49 a5 56 bd 21 40 0c bd
       -0.097272374 -0.10710623 -0.052403722 -0.034240846
000060 ac 5d b4 bd 3b f4 04 be cc cf 85 bd 6b a0 de bb
       -0.08806929 -0.12983792 -0.06533775 -0.0067940257
000070 a7 df 6e bd eb 34 db bd 6b 72 1d be 19 1e c3 bd
       -0.05831876 -0.10703453 -0.15375678 -0.09527225
000080 35 e5 a6 bd 6f 82 84 bd fb f0 f8 bd 5d 86 d8 bd
       -0.081491865 -0.06470191 -0.121553384 -0.10572503
000090 db 54 8f 3c ec 0c 18 be 7f 15 ba bd 52 3a 03 be
       0.017496517 -0.1484868 -0.09086131 -0.12815216
0000a0 ff e3 c9 bd 85 6f c6 bc d3 3d 99 bd 59 ba 9d bd
       -0.0985794 -0.024223099 -0.07482495 -0.077015586
0000b0 e6 91 dd bd e5 d5 20 be 58 a9 4b bd bd e7 01 be
       -0.108188435 -0.15706594 -0.049722046 -0.12686057
0000c0 1d 3b be bd ba 19 bf bd 30 4f bb bd d3 61 f3 bd
       -0.09288619 -0.09331079 -0.09145963 -0.11883893
0000d0 16 c0 dd bd ed bf 10 bd 4e 0d 06 be f4 cb 67 bd
       -0.10827653 -0.035339285 -0.13091013 -0.05659099
0000e0 61 70 ae bd 0c ec fe bd f1 a3 22 bd 26 52 1e be
       -0.08517528 -0.12447366 -0.039707128 -0.15461025
0000f0 aa 0e 21 be b0 56 0f bd 01 a3 a0 bd 01 32 c6 bd
       -0.1572825 -0.03499478 -0.078435905 -0.09677506

cards_net.0.weight f4 [32, 14]
000000 2f 96 dc 3d 07 fe 47 be be f6 40 bd 9b 23 68 be
       0.10770833 -0.19530497 -0.04711031 -0.22669832
000010 97 87 36 bd 78 2f ca bd 3f 7d 47 3e 23 d9 7c 3d
       -0.044562902 -0.09872335 0.19481371 0.061730515
000020 ff f1 be 3d e6 9d 70 3e fe 78 23 be 04 72 98 3d
       0.09323501 0.23497733 -0.15964124 0.07443622
000030 e4 01 91 bd 36 82 43 3e 9f 29 4d 3d 3c ab 17 be
       -0.07080439 0.1909264 0.05008852 -0.14811414
000040 82 24 fa bd a0 cb 93 bd f2 6c d0 3d fd ac 57 3e
       -0.122139946 -0.07216573 0.1017703 0.21062084
000050 8d aa 1e be 81 79 15 3e 41 44 27 3e 7c 12 70 be
       -0.15494747 0.14597131 0.1633463 -0.23444551
000060 fc ef 66 3b 62 42 30 bd c2 ec 53 be 39 4e 33 bd
       0.0035238257 -0.043032058 -0.20695785 -0.04377577
000070 af 77 45 3d ed 21 df 3d 8c d0 08 3e a5 5d 9d 3d
       0.048209842 0.10895143 0.13360804 0.07683877
000080 8b 1a f4 3d f9 67 47 3d 19 37 96 3c bc 31 16 3e
       0.11919125 0.04868314 0.01833682 0.1466741
000090 93 a6 06 be 0b 3f 2e 3e c4 37 bb 3d ac 2c 63 be
       -0.1314948 0.17016236 0.09141496 -0.2218501
0000a0 bc 59 06 be 8c ae 22 be b3 16 76 be a8 eb 4d 3e
       -0.13120168 -0.15886897 -0.24032097 0.20109427
0000b0 19 4f 31 bd 51 e5 93 3e 89 2a 36 3e 1a 67 74 be
       -0.043288324 0.28885892 0.17789663 -0.23867455
0000c0 20 31 15 3d 8f dc 22 3e ed e3 c5 3d bc ee 9a 3e
       0.036423802 0.15904449 0.09662614 0.30260265
0000d0 39 1f c3 bd 82 ca d0 bc 83 7f 5b be 26 fc 76 be
       -0.095274396 -0.025487188 -0.2143536 -0.24119624
0000e0 5e 3d ba bd 06 72 98 bd 95 2c 9d be f7 fc d7 bc
       -0.09093736 -0.07443623 -0.30698076 -0.02636574
0000f0 f3 2e 27 3e 0f 75 e5 3d 2d 93 3c 3e 14 d3 de bc
       0.16326503 0.11203968 0.18415518 -0.02720026
000100 84 83 6b 3e 14 8f a2 bd c7 57 5a 3e f2 ba 83 3e
       0.22999388 -0.07937446 0.21322547 0.25728565
000110 a4 40 be 3d 2a 80 b1 be ef 12 30 3e 3a 32 3d 3e
       0.09289673 -0.34668094 0.17194723 0.18476191
000120 1e 79 80 be 2d 71 38 3b ef 3e 48 3e 65 44 e5 3c
       -0.25092405 0.002814363 0.19555257 0.027986715
000130 a4 cd bd 3c 61 9a 3b be 46 29 fe 3c 48 84 ba 3d
       0.023169346 -0.1832061 0.03102554 0.09107262
000140 57 08 fd bd ae 73 83 bc 79 2f fd bd 2d 15 0b bc
       -0.12355106 -0.016046371 -0.1236257 -0.008488935
000150 df c7 11 3e dd 17 90 3d b7 a5 22 3e da 6d bd bd
       0.14236401 0.070358016 0.15883528 -0.09249468
000160 7a bc 35 3e 91 1a 90 3e da 68 8d 3e 7b 61 ec 3d
       0.1774768 0.2814527 0.27619058 0.115420304
000170 06 18 d0 bd 62 23 5e be 46 52 9f bd 11 6c 19 be
       -0.10160832 -0.21693185 -0.07779364 -0.1498263
000180 7a db df bc f5 86 b9 3d 1d 1e 61 bb 9c 82 c9 bd
       -0.027326334 0.09058944 -0.0034350224 -0.09839365
000190 c5 5e a3 bb 8b eb 90 bd 05 c6 01 be ce e5 b1 bd
       -0.0049856626 -0.07076176 -0.12673195 -0.0868641
0001a0 87 5a a7 bd 2b 2d 52 3e c3 f1 87 bc af d2 58 be
       -0.081715636 0.20525043 -0.016594773 -0.2117412
0001b0 be 7a d8 3d 03 45 91 bd a6 82 e7 3d ab 53 1e 3e
       0.10570286 -0.07093241 0.11304216 0.15461604
0001c0 63 6a a6 3d 5a 27 40 be ef b7 df bc 1e 04 7f bd
       0.081257604 -0.18765011 -0.027309386 -0.062259786
0001d0 20 76 8c 3d 25 55 43 3e a9 07 98 3d 00 7a 8f bd
       0.06858468 0.19075449 0.07423336 -0.070056915
0001e0 cf 20 51 be f5 40 31 be 68 44 77 be ae ff 8f 3e
       -0.20422672 -0.17309935 -0.24147189 0.28124756
0001f0 e0 1a 77 3e 10 9b 0c be 10 21 97 3e 7e af 7f 3e
       0.24131346 -0.13731027 0.29517412 0.24969289
000200 96 6e 58 bc 07 66 1e be 70 68 30 3e bf 88 37 3d
       -0.0132099595 -0.15468608 0.1722734 0.044808146
000210 be e5 47 3e 72 0c 33 3e 19 b5 e4 bd 52 6d 77 be
       0.19521233 0.17485216 -0.11167354 -0.24162796
000220 3a 75 e7 bd 2e 6f 86 be 9b 08 e5 3c 1b d9 c8 bd
       -0.11301656 -0.26256698 0.027958205 -0.098070346
000230 17 5d 42 be 99 74 f7 3d cd 7f 4c 3e fe ce 87 3d
       -0.18980823 0.12082786 0.19970627 0.066312775
000240 d3 ce 27 3e 62 83 26 3e 2b d1 ab bd 02 bf 0e 3d
       0.16387491 0.16261056 -0.08389505 0.034850128
000250 e3 75 d2 bd f2 a7 0f be 47 79 d6 bc 25 41 e4 bd
       -0.10276391 -0.1402891 -0.026180876 -0.11145238
000260 00 ab 61 bd 28 ae 5c 3e c0 58 eb bd 51 5e 89 bc
       -0.05509472 0.2155081 -0.11491537 -0.016768606
000270 d2 cb 88 3e 4c f3 43 be 68 e7 2b 3e 15 c1 28 be
       0.26718003 -0.19135779 0.16787493 -0.16479905
000280 32 a6 7e 3d 27 d8 87 3d 26 a6 4a be d5 47 e9 bd
       0.062170215 0.06633025 -0.19789943 -0.11390654
000290 f2 88 68 bd 12 c2 4e be 62 b5 d6 bd 58 50 07 3c
       -0.056771226 -0.2019122 -0.10483815 0.008258902
0002a0 40 1f f6 3d 35 5d 3c be c4 73 39 3e cd 87 70 3e
       0.12017679 -0.1839493 0.18110567 0.23489304
0002b0 c8 7f 5e bd 60 ee 3e 3e c0 c7 10 3e 4f 40 c1 3d
       -0.05432108 0.1864562 0.14138699 0.09436094
0002c0 3f 53 12 be b2 0a 11 bd 03 1c cd bd 31 92 88 3b
       -0.14289568 -0.03541059 -0.100151084 0.004167818
0002d0 73 bb ed bd 24 b0 96 3d 32 05 22 be a8 8a e8 bd
       -0.11608019 0.07357815 -0.15822294 -0.113545716
0002e0 bf 8d 0d 3d 9e 9d 24 3d d5 39 35 3e 19 97 9d bd
       0.034559008 0.040189378 0.17697842 -0.07694835
0002f0 8c f0 46 be 0e e3 21 be 77 6f 21 bd a5 b7 44 bd
       -0.19427699 -0.1580927 -0.03941294 -0.0480267
000300 fa f1 e9 3d ab 67 cb 3d ee 95 4c be a8 18 fe 3d
       0.114231065 0.099318825 -0.19979069 0.124070466
000310 6e 61 d4 3d 4f df 53 be 18 c0 4b be ca 96 1e 3e
       0.10370146 -0.20690654 -0.19897497 0.15487209
000320 43 b2 61 bd b0 3a 3c be 78 15 94 3e 4a f2 5f be
       -0.055101644 -0.18381763 0.2892263 -0.2186977
000330 d5 15 4d be 55 5b 9c ba af 5a 68 3e e0 79 0f 3e
       -0.2002786 -0.0011929075 0.22690843 0.14011335
000340 92 f5 00 3d 3b 38 8b be 8d f0 51 3e 64 cd 56 3e
       0.031484194 -0.27191338 0.20501919 0.20976788
000350 8d 7c 52 be b4 9e 95 3d a2 52 20 bd 6c 5b 4b 3e
       -0.20555325 0.07305661 -0.039141305 0.19859093
000360 89 3c cd 3d 65 10 90 bd 83 9d cf 3c 5b c7 aa be
       0.10021312 -0.07034377 0.025343662 -0.3335522
000370 70 72 9e bc b6 b1 71 be 40 cc 1f 3e 1d a3 4c 3c
       -0.019341677 -0.23602948 0.15605259 0.012490061
000380 13 66 05 3e 05 67 22 3c 0c ad cc bd 0f 60 c8 3d
       0.1302722 0.009912257 -0.099939436 0.09783947
000390 e3 df 3c be 48 33 32 be 96 6e 2b be 86 96 10 3d
       -0.18444781 -0.17402375 -0.16741404 0.0352998
0003a0 1b 73 20 be 6f 2c e2 bd 92 53 13 3e 82 11 e6 bd
       -0.15668909 -0.11043631 0.14387348 -0.11233808
0003b0 ea 74 b9 bd e0 a4 17 be e0 28 b7 bc a2 a6 95 bd
       -0.09055503 -0.14808989 -0.022358358 -0.07307173
0003c0 1f a6 aa bd f9 aa 03 be fd b6 2d 3e 20 1c 1c bc
       -0.08332466 -0.1285819 0.16964336 -0.00952819
0003d0 20 6a 08 be 34 e4 87 3b fe c7 46 be e8 9e 9b 3e
       -0.13321733 0.004147077 -0.19412228 0.30394673
0003e0 78 27 f4 3c fd 39 4c 3e 58 0a 3b 3e 87 bb e4 bd
       0.029803976 0.19943996 0.18265665 -0.111685805
0003f0 b7 1c 3d be 1d 11 92 bc ca b8 34 be 60 47 88 bd
       -0.18467985 -0.017830426 -0.17648616 -0.06654239

cards_net.0.bias f4 [32]
000000 a2 fe 19 be 0e 43 97 3d bf b3 6f be 96 17 f5 bd
       -0.15038541 0.073858365 -0.23408411 -0.11967389
000010 45 74 48 bb 67 28 9d 3d e3 f9 46 be d9 b7 9e bd
       -0.003058688 0.07673722 -0.19431262 -0.0774991
000020 1b 20 6c 3e 3f f5 a2 bd 2a c3 e3 bd 59 21 89 3e
       0.23059122 -0.07956933 -0.11121209 0.26783255
000030 74 af 43 be 8c d1 d0 3d 96 70 bc 3d 7a 91 a9 bd
       -0.19109899 0.10196218 0.092011616 -0.082797006
000040 68 c9 81 3e 5a 6c 87 bd 42 b5 23 bc 0e 7b c2 bc
       0.25348973 -0.06612463 -0.009991946 -0.023740318
000050 a7 7a 9b bb da 2b 04 3e c6 61 99 bd ff dd 19 be
       -0.004744846 0.12907353 -0.07489352 -0.15026091
000060 7c 49 e4 3d d9 21 9b 3c 7c 4d 7e be ba 94 5d 3e
       0.111468285 0.018937038 -0.24834245 0.21638766
000070 a6 e0 12 3e 65 63 39 3d 4a 61 c0 3c d5 e1 53 3d
       0.14343509 0.045260806 0.023483891 0.051729042

cards_net.1.weight f4 [32, 32]
000000 99 af 95 bd e1 b6 4a be da f1 7a bd cf f8 9b 3c
       -0.07308883 -0.19796325 -0.061265804 0.01903954
000010 f4 51 16 be 15 70 ff bd 68 88 31 be 5b a2 64 bd
       -0.146797 -0.1247255 -0.17337191 -0.055818897
000020 8c 79 fb bd 38 a3 96 3d e1 59 65 bb 5f 0b ff 3d
       -0.122790426 0.0735535 -0.00349962 0.12453341
000030 e9 f7 43 be 6b 54 e5 3d f9 1a 28 3c 65 23 76 be
       -0.19137539 0.11197742 0.010260337 -0.2403694
000040 2d b8 2a 3e 7c b0 fe 3d 7a 5c 80 bb 86 25 35 3e
       0.1667182 0.124360055 -0.003917274 0.17690095
000050 cb 46 33 3d da 72 96 bb 98 2e 7a 3d 34 0b 25 3e
       0.043768685 -0.004591328 0.06107959 0.16117555
000060 2b a3 42 bd 1d bc 82 bd a9 81 ba bd 36 a9 68 3e
       -0.04751889 -0.06383536 -0.09106762 0.22720799
000070 42 27 2b 3e ae 1c 4b 3d 93 b6 59 bd 14 71 8f 3c
       0.16714194 0.049587898 -0.053152632 0.017509975
000080 9c 75 d7 bd 41 5c a0 3d 7c a8 55 3e f0 87 10 3e
       -0.10520479 0.07830096 0.20865053 0.14114356
000090 7d 65 ee 3d bb 3f f8 bb 48 85 31 be 5b 78 b9 3d
       0.11640451 -0.0075759566 -0.17335999 0.09056159
0000a0 f2 12 67 bd 5d a8 1d be e0 e5 6a 3d 5d b2 af 3c
       -0.056414552 -0.15396257 0.057348132 0.021447355
0000b0 4a ff ec 3c 54 ab 18 3e 59 74 41 bd 8e a9 5a be
       0.028930325 0.14909106 -0.0472301 -0.21353742
0000c0 a0 0c e6 bd eb 5c 96 bc a2 7f bd bd bd 01 23 be
       -0.11232877 -0.018354854 -0.0925286 -0.15918632
0000d0 05 7e a0 3d d1 cd b9 3b fd ea 58 3e 3a 9a 01 3e
       0.07836536 0.005670287 0.21183391 0.12656489
0000e0 45 5d da bc 2d 03 7b bc 2e a9 c1 bc ed 31 9a 3d
       -0.026655803 -0.015320581 -0.023640241 0.07529054
0000f0 07 9f 9c 3d a4 7a fb bd 4b cf d9 3c 5b a2 08 bb
       0.076475196 -0.12279251 0.026588103 -0.0020848725
000100 70 03 03 3e 09 00 39 3e ad 55 98 bb 52 25 1f 3e
       0.1279428 0.1806642 -0.004648885 0.1554158
000110 de 3b 99 bd d9 14 fb 3d 83 3d 08 3c af cc f8 3b
       -0.07482122 0.12259836 0.008315447 0.0075927596
000120 3e 81 3b 3d a8 22 cf 3d 6f 42 14 bb e0 45 a5 3d
       0.04577755 0.10114032 -0.0022622605 0.08069968
000130 f6 4c 5b 3d cc db 95 3d 26 95 ae 3d 6e f7 1b 3e
       0.053540193 0.073173136 0.085245416 0.15231106
000140 d0 8c 57 3e 0e 43 79 3d 10 9f 9c bd 1b 68 91 bb
       0.2104981 0.060854964 -0.07647526 -0.004437459
000150 ac 16 a7 bd 75 fe d8 3c b0 06 a7 bd b1 00 e2 bc
       -0.08158621 0.026488522 -0.081555724 -0.02758822
000160 52 3a e5 bc e4 7c 04 bb 23 32 5a 3d 9e cb e5 3d
       -0.02798191 -0.0020216042 0.05327047 0.112204775
000170 f7 dd ac 3d 54 28 38 be bc 2e a0 bd c6 bc 2e bd
       0.08440774 -0.17984134 -0.07821414 -0.042660497
000180 f7 b7 92 3c e1 63 f8 bc 88 88 ca 3c 41 34 96 bd
       0.017909987 -0.030321063 0.024723306 -0.073341854
000190 1f 34 8a 3d 94 ce 5f bd c2 b9 f3 3d 36 9a c8 bd
       0.067482226 -0.054640368 0.11900665 -0.097950384
0001a0 f5 23 cb bd 37 e2 ec 3c 51 a8 e6 3d 16 0d ba bd
       -0.09918968 0.028916461 0.112625726 -0.09084527
0001b0 61 19 80 3d c1 e4 88 3d 66 42 c6 3d 7a 73 b7 3d
       0.06254841 0.06684256 0.09680633 0.08957572
0001c0 19 ac 09 3d 6b 08 7f bd cb ba d3 bd b5 23 98 b9
       0.03361139 -0.062263887 -0.10338362 -0.00029018303
0001d0 84 2c 92 bd 68 9f 78 bd 09 99 da 3c e7 ed be 3d
       -0.07137397 -0.060698897 0.026684301 0.0932272
0001e0 cc 4c 6c 3d f2 83 c1 3d 77 99 aa bd 78 ab 94 bd
       0.057690427 0.09448995 -0.08330052 -0.072592676
0001f0 81 90 c3 3c bb e5 15 3d d3 74 f5 3c 7c 15 29 bc
       0.023872616 0.03659604 0.029962933 -0.010320064
000200 f0 09 06 3d 04 4b f7 3c f9 c3 39 be 73 4b 84 3d
       0.03272432 0.030187137 -0.18141164 0.06459703
000210 39 ad 65 3e b5 62 f0 3d 8c 2d 2d 3e 3d 1a ad bc
       0.2242936 0.11737577 0.16911906 -0.021130675
000220 cc 9a 09 3e b5 47 6a bd 1c 2b 4c be 5a 9b 23 be
       0.13437957 -0.05719729 -0.1993832 -0.1597723
000230 12 ef 02 be 1d 48 46 be 63 c7 1d 3c 4f 03 0e 3e
       -0.1278651 -0.19363447 0.009630057 0.1386845
000240 5d 71 f9 3d 23 eb 39 3d c0 00 2a 3c ef ae 27 bd
       0.121798255 0.04539026 0.010376155 -0.040938314
000250 d2 b0 3a be e4 46 8a bd be 01 a3 bd 1b ca 05 3c
       -0.18231514 -0.067518026 -0.07959317 0.0081658615
000260 fe fa 24 3e c6 28 19 be 89 05 77 bd f8 b4 89 3b
       0.16111371 -0.1495696 -0.060308013 0.0042024814
000270 0d 2c 37 bd c7 07 be 3d e5 e0 76 bd 91 19 3d 3e
       -0.044719744 0.09278827 -0.06027307 0.18466784
000280 7f 20 2d bd c1 50 c0 bd 10 bf aa bc e8 db d0 3d
       -0.04226732 -0.093904026 -0.020843059 0.10198194
000290 fd bd ae 3c 16 c9 b1 3d f9 dc 01 3e 5d e5 35 bd
       0.021330828 0.08680932 0.1268195 -0.04440819
0002a0 c9 a2 4e 3e 83 76 31 3d 1d 8c ce 3d 20 66 50 3d
       0.20179285 0.043325912 0.10085318 0.050878644
0002b0 42 f3 bb bd 1a fe d6 bc 34 76 22 3e 2a 9e 0d 3d
       -0.09177257 -0.026244212 0.15865403 0.034574665
0002c0 7c 91 e7 3b a6 45 2f 3e 30 a5 d8 3d 4e 27 05 bc
       0.0070669036 0.17116413 0.10578382 -0.008127047
0002d0 f5 61 f1 3d 00 3a 35 be a8 2c 09 3e 1b 08 d6 bd
       0.11786262 -0.17697906 0.13395941 -0.10450765
0002e0 c8 f6 b2 bd 05 6a 18 3e 48 b6 fe 3d b5 21 cb bd
       -0.08738476 0.14884193 0.12437111 -0.099185385
0002f0 66 be da bd 7f aa 0f be e6 01 8b 3c 5a f2 b9 bd
       -0.10680847 -0.14029883 0.016968679 -0.09079428
000300 3d 2d 25 bc 70 2e 96 bd 13 3f 19 3e 90 2f 0a 3e
       -0.010081586 -0.07333076 0.14965467 0.13494706
000310 17 6d 2f be d4 90 de 3c fe 57 01 be 5d 23 af bd
       -0.17131458 0.027168669 -0.12631223 -0.08551667
000320 df 75 28 bc 08 ae 4a bb da b1 c9 bd 02 88 3a 3b
       -0.010282009 -0.0030926485 -0.098483756 0.0028462415
000330 ea 45 fb 3d 3d 4f 79 bd b5 2e d7 3d 60 c9 0d be
       0.122691944 -0.060866583 0.105069555 -0.1384635
000340 e8 bf 18 be 1f 48 e1 3d 18 e4 24 bb be 5b f6 3d
       -0.14916956 0.11000084 -0.0025160369 0.12029217
000350 f7 86 a7 bd 66 5c 1b 3d a0 32 39 3d 92 91 a1 3d
       -0.081800394 0.037929915 0.045214295 0.078890935
000360 8b 15 8b 3d 7a 45 0c 3e cc 33 67 be ef 7d 9b bd
       0.06791218 0.13698378 -0.22578353 -0.07592379
000370 63 24 19 3e 57 c8 b5 bc 28 98 25 3e 72 76 fc bd
       0.14955287 -0.022190256 0.16171324 -0.12327279
000380 10 58 89 bd b4 2e fd bb 45 23 3c be 4c 03 6c 3d
       -0.0670625 -0.0077265147 -0.1837283 0.05762033
000390 f1 49 8f bd cb 3c 38 bd 70 b4 47 bd b8 98 2f be
       -0.06996525 -0.04497985 -0.048756063 -0.17148101
0003a0 ef 54 85 3c 36 00 91 bd e2 7c a2 3d 47 55 d5 3d
       0.016275851 -0.07080118 0.07933976 0.10416656
0003b0 cd 4c 5e bd 4b 79 66 3d 18 42 a9 3d 48 a5 31 be
       -0.05427246 0.056268018 0.082645595 -0.17348206
0003c0 99 90 19 be 39 61 89 3d dd 8c 21 bc f6 23 82 bd
       -0.14996566 0.06707997 -0.009860245 -0.06354515
0003d0 4e 12 af bd db cb 25 bd 95 df 4d 3d df e5 a6 3d
       -0.08548413 -0.040477615 0.050262053 0.08149313
0003e0 a5 0a 35 3d 01 46 f0 bd 8b 3f 30 be 8f 77 e6 bd
       0.044199605 -0.11732102 -0.1721174 -0.11253273
0003f0 7a ba 06 bd 6d 5e cb 3d 82 57 29 be f9 ba 68 be
       -0.03289268 0.0993012 -0.16537288 -0.22727574

cards_net.1.bias f4 [32]
000000 ca 49 18 bb 43 69 77 3d 97 62 da 3d ba 55 85 bd
       -0.002323734 0.06040312 0.10663336 -0.06510492
000010 55 db d6 bd 6b e1 92 bd 1b a9 48 3d f7 b7 ae bd
       -0.10491053 -0.07171901 0.048989397 -0.08531182
000020 7e e2 15 3e 78 b4 ee bb 24 4d 9f bd 49 b4 55 3d
       0.14637181 -0.007284697 -0.07778385 0.052173886
000030 ef b1 da bc 7e 92 06 be 67 a9 80 bb e8 ed cc 3b
       -0.026696173 -0.1314182 -0.0039264443 0.0062539466
000040 bc df 68 3d eb 05 e0 3b c7 e6 c7 3d 47 62 01 3d
       0.056853995 0.006836643 0.09760814 0.031587865
000050 43 eb 67 bc 19 8b 53 bd de d8 39 bd 84 9c 0b 3d
       -0.014155212 -0.051646326 -0.045372836 0.03408481
000060 10 da 90 bd ad c6 15 bd d6 bd 1e bd e7 7f de bd
       -0.07072842 -0.036566425 -0.03875526 -0.10864239
000070 22 6c aa 3d 20 be d8 bc 58 f0 9b bc 35 0f 75 3c
       0.08321406 -0.026457846 -0.019035503 0.014957239

score_net.0.weight f4 [8, 1]
000000 70 29 f0 be 98 84 0b be 60 08 35 bd c4 ce 02 c0
       -0.46906614 -0.13624799 -0.04419744 -2.04387
000010 ba 3a 46 bf a1 53 fa 3f 05 44 0b 40 31 d2 30 c0
       -0.7743336 1.9556772 2.1760266 -2.762829

score_net.0.bias f4 [8]
000000 d8 f9 3e bf 74 bd 1a bf 2c c5 06 bf af c8 08 3f
       -0.7459998 -0.6044533 -0.5264461 0.5343122
000010 a0 30 67 bf 72 ff 8f 3e 8c 35 4a 3e 54 22 0c 3e
       -0.9030857 0.28124577 0.19746989 0.1368497

fusion_net.0.weight f4 [128, 104]
000000 12 d6 86 3d 7f ab ab 3d 1b de 1e bd 82 dd 8a bd
       0.065837994 0.0838232 -0.038786035 -0.067805305
000010 13 b0 89 3d be 51 fd bd 77 c1 c6 3d fd 74 84 3d
       0.067230366 -0.12369107 0.09704869 0.06467626
000020 01 47 73 bd 09 4f 86 bd da ab a9 3d 94 d7 dd 3c
       -0.059393886 -0.065580435 0.08284731 0.027080335
000030 6a d4 b2 3d 66 2b 85 bd f1 3a 4b 3e d1 ca c4 3c
       0.08731921 -0.06502418 0.19846703 0.024022492
000040 f2 76 d0 3b 1a 74 f4 bd df c0 b9 bc 2f 12 5f bd
       0.0063618356 -0.11936207 -0.022674976 -0.0544607
000050 6f 89 63 3e 95 38 b0 bb 78 90 72 bc d4 04 b2 3c
       0.22220396 -0.005377839 -0.014804952 0.021730818
000060 3b f0 f0 3b 78 72 39 bd 82 10 08 bd 4a 48 2a be
       0.0073528565 -0.04527518 -0.033218868 -0.16629139
000070 5d f0 f3 3d 39 1b 15 bb 35 01 3a 3d 68 7d e2 bd
       0.1191108 -0.0022751822 0.045411307 -0.110590756
000080 c6 72 9a 3d e1 f6 3f 3d 08 78 2d 3e 81 05 78 3d
       0.075414225 0.0468663 0.1694032 0.060552124
000090 d5 be 22 be ac 98 bb 3d 46 6d 1c 3e 2a 94 c4 bb
       -0.15893109 0.09159979 0.1527606 -0.005999108
0000a0 b2 77 a3 ba 0a 1f 3d 3c 3e 71 43 3d cd 59 5c 3c
       -0.0012471585 0.011543045 0.047715418 0.013449145
0000b0 9a 19 0d 3d c5 62 40 3e 8d fb 0b bd 2d 15 1b 3e
       0.034448244 0.18787678 -0.034175444 0.15144797
0000c0 7b 8a ab bb c1 ed 44 3e a0 58 b0 bd 67 25 9f 3c
       -0.005235014 0.19231321 -0.08610654 0.019427015
0000d0 50 04 6d 3d cc 1c 30 3d cc a7 38 3d 86 e4 7c bd
       0.05786544 0.042996213 0.0450819 -0.061741374
0000e0 c4 fd b8 3d 39 99 9b bd 67 21 3a 3d 3d 43 28 3d
       0.09032777 -0.07597584 0.04544201 0.04107975
0000f0 dd 02 11 3d 44 75 82 3d cd 25 99 bd 6a ef 16 3d
       0.03540312 0.06370023 -0.07477913 0.036849417
000100 f9 dc aa bc 62 f5 9a 3c e6 f7 ea bc 24 df 29 bd
       -0.020857321 0.018915836 -0.02868266 -0.04147257
000110 9d 2d e3 3d 70 a1 b5 3d ac 56 79 bd 46 5b 91 3d
       0.110926844 0.088686824 -0.060873672 0.07097487
000120 e8 4b 96 bc fa bc 64 3d a8 2c d0 bd 9a 81 aa 3c
       -0.018346742 0.055844285 -0.101647675 0.020813752
000130 c8 83 b5 bd c7 db c7 3d 94 b4 fb bd b1 dc 3d bd
       -0.08863026 0.09758716 -0.12290302 -0.046353046
000140 c7 d5 12 bd 22 95 6c bd d8 ee 9a bd a4 98 cb bc
       -0.035848405 -0.05775941 -0.07565087 -0.024853058
000150 16 b4 51 bd ae 20 0a be 32 48 b0 3c e4 28 76 3c
       -0.051197134 -0.13489029 0.0215188 0.0150243975
000160 aa 5d e8 bd 76 d8 71 3c 20 d1 8e bd c3 37 e8 3c
       -0.1134599 0.014761081 -0.06973481 0.028346902
000170 be 84 76 bd 4a 6d a2 bd ab 36 29 3c 63 da 7f 3d
       -0.060185187 -0.079310015 0.010327975 0.06246413
000180 7d 34 82 3c 7d 51 b2 bc 14 81 a5 bd b8 67 2d be
       0.015894169 -0.021767372 -0.0808126 -0.16934097
000190 48 3d a1 bd bf 96 8a 3e d1 39 85 3e 22 b8 4f be
       -0.078730166 0.27068135 0.26020673 -0.20285085
0001a0 42 8d de 3d 89 dd 1b bd 7b 97 5b 3c 0d 19 8d 3b
       0.108667865 -0.03805307 0.013402815 0.004305965
0001b0 80 61 d6 3d f3 5e 49 bc 21 2f bc 38 ee 52 22 bc
       0.104678154 -0.012290704 8.973317e-05 -0.009907467
0001c0 57 fd 78 bc b5 6d e8 bc 09 b7 1f 3d 0e f2 18 bc
       -0.01519712 -0.028372625 0.038992915 -0.009335054
0001d0 db 12 b2 3d 7c 3e e0 bd ad 89 13 3d 5e c4 77 3d
       0.08695003 -0.10949418 0.03601997 0.060490005
0001e0 aa a8 45 bd b0 7d 18 be 48 4a b8 bd 94 19 db bd
       -0.048256554 -0.14891696 -0.08998543 -0.10698238
0001f0 d1 aa 1c 3d 89 93 b9 bd a4 59 f5 bb cc f0 07 3e
       0.03824884 -0.09061343 -0.0074874926 0.1327545
000200 97 04 9f bd 2c 4e 71 3d 1e ff 99 bd 9b 8a c8 bc
       -0.07764547 0.05891244 -0.07519363 -0.024480155
000210 9d ef b9 bd 54 d7 21 bd ed 9b c8 3c b9 30 de 3c
       -0.09078906 -0.039511994 0.024488414 0.027122842
000220 c2 94 c1 bd 5f 20 73 3d 7d cc 9d 3d 21 7e 87 bc
       -0.094522014 0.059357043 0.07705019 -0.016539635
000230 d6 b0 bd bd 14 99 26 3d 86 dc fb bd 03 f7 09 bd
       -0.092622444 0.04067333 -0.12297921 -0.033682834
000240 5a c6 05 bd a5 bb 49 3c a5 a5 b1 bc c7 79 df bd
       -0.032659866 0.012312804 -0.02168543 -0.10911899
000250 bf 51 b7 bc 9c c2 cc bd 20 73 39 bb 1c be df 3c
       -0.022377847 -0.09998056 -0.002829738 0.02731233
000260 7c fa 0d 3d 06 9f 28 3e 43 27 ba bd 90 88 db 3c
       0.03466271 0.16466913 -0.0908952 0.026798517
000270 c4 1d c8 3a d0 b9 ae bc 0a 1b 92 3c a8 1b d7 38
       0.001526766 -0.021328837 0.017835159 0.0001025715
000280 a3 90 34 bd 2a 26 ad bc 6e a3 b3 3c f5 0a 69 3d
       -0.04408325 -0.021136362 0.021928515 0.056895215
000290 ea 52 7b bd c9 94 0d 3c 93 0b 80 3d 6e 0f 0e be
       -0.06135837 0.00864143 0.062522076 -0.13873073
0002a0 c7 75 a2 bd 1d e8 82 3d b9 10 c5 3d 93 3f aa bd
       -0.079326205 0.06391928 0.0962233 -0.08312907
0002b0 51 14 17 ba be 7d b7 3d 09 5d 97 3d 8c 25 e5 bc
       -0.000576322 0.0895953 0.07390792 -0.027972005
0002c0 63 f5 8b bc fc 51 2d 3d fa e9 a3 bd 9d 5d 4b 3d
       -0.017084783 0.042314515 -0.08003612 0.049649823
0002d0 36 11 d5 3c df 2c 2d 3e f5 4f 79 3c 58 08 ea bc
       0.026009183 0.16911648 0.015216817 -0.028568432
0002e0 d6 5f 8a bd 54 ec dc ba a2 02 12 3d c8 c9 26 3c
       -0.067565605 -0.0016855099 0.035647042 0.010179944
0002f0 33 ca 29 3c 3b 6a dc 3d 30 5c a5 bd 2e 5b e1 bd
       0.010363149 0.10762449 -0.08074224 -0.11003719
000300 96 a1 b9 3a 44 94 b5 3d 8f af a6 bb c6 63 d0 3c
       0.0014162536 0.0886617 -0.005086846 0.0254382
000310 30 44 a9 bb 2b 1b 92 3d a2 ff 5a bd b3 a5 2c bd
       -0.0051655993 0.07134088 -0.053466447 -0.04215021
000320 e7 fc e9 3c 1e ad 3b bb 17 81 7c 3d 2b e9 cd bc
       0.028562976 -0.0028637121 0.061646547 -0.025135597
000330 8e 5d 3d 3c 28 b5 00 3d 25 85 38 3e f8 ac 2f 3b
       0.01155795 0.031422764 0.1801954 0.0026805978
000340 d3 f0 0c 3e 81 ae c9 3d 44 e8 14 3d 46 09 55 bc
       0.13763742 0.09847737 0.03635432 -0.013002699
000350 e0 b4 96 3e ac 37 c3 3c 36 77 2d 3d ca a0 22 bc
       0.29434872 0.023830257 0.042350017 -0.00992603
000360 b7 59 35 be 28 10 db 3d 44 37 ed 3d a6 f9 ba 3d
       -0.17710005 0.10696441 0.11582807 0.09129648
000370 07 57 2f 3b 02 46 8a 3d f2 84 38 3e 74 71 3f 3c
       0.0026754753 0.06751634 0.18019465 0.011684764
000380 41 26 c5 bc ba 3d 3c 3d b6 23 33 3e ad e8 c5 bb
       -0.024066092 0.045957305 0.17494091 -0.0060397
000390 85 4f 1c 3d dd 5b 32 bd 50 6a 0c 3e 73 7a 21 bb
       0.038161773 -0.04354464 0.1371243 -0.0024639636
0003a0 a4 fd 31 3d 0e 7e 70 3d 91 3e 98 3b e0 4f 2e be
       0.04345478 0.058713965 0.0046461304 -0.17022657
0003b0 7f c7 60 3d 3c ae 16 3e cb 25 ea 3d 2b 0c 8b 3d
       0.054877754 0.14714903 0.1143299 0.0678943
0003c0 2b 55 48 bc 8d a8 0b bd 48 9e 6f 3c 0a ae 16 3d
       -0.012227337 -0.03409629 0.01462514 0.03678707
0003d0 cf 1b bb bd 7f ae b8 3d 48 a4 42 3e be 6e 70 3d
       -0.091361634 0.090176575 0.19007981 0.058699362
0003e0 ce 24 2a bd 00 ea 99 bd c9 21 96 3d dd 32 72 3d
       -0.041539006 -0.07515335 0.07330663 0.05913054
0003f0 ef 18 80 3d e9 a5 69 3d c9 b3 8d 3d ce b0 28 3e
       0.06254756 0.05704299 0.06919057 0.16473696

fusion_net.0.bias f4 [128]
000000 d7 fc af 3d e5 b6 a8 3d e2 4b 74 3c 9a 8e 65 3c
       0.08593147 0.08238009 0.01491067 0.01401105
000010 2c 66 da 3b 47 27 a5 bd 1e b8 57 bc f7 94 98 ba
       0.006665012 -0.08064132 -0.013166456 -0.0011641075
000020 30 63 d0 bd 85 d6 62 3d b7 f0 a2 bb e4 4a 3a 3d
       -0.101751685 0.055380363 -0.004972543 0.045481578
000030 f5 f2 b0 3c 2c c7 6f 3c 06 83 0d bd 1d 48 80 3d
       0.021600226 0.014634889 -0.03454878 0.062637545
000040 e8 c1 06 3d 86 f2 a7 bd 84 e7 84 bb d0 6b 88 bd
       0.032899767 -0.082005545 -0.004055919 -0.066611886
000050 78 5e 38 bd 0d b7 d0 bd 7b 34 67 3d 3f 4f 70 bd
       -0.045011967 -0.10191164 0.056446534 -0.058669325
000060 fd 8c fd bd 74 4e 1b 3d 54 67 4e 3d ee 50 5e bc
       -0.12380407 0.037916616 0.05039151 -0.0135691
000070 22 bb 09 3d 02 03 62 3c 55 1d b4 3d 02 32 6e 3d
       0.03362573 0.013794662 0.08794657 0.05815316
000080 a2 ad d8 bd 46 13 ed 3c e9 63 86 bd 17 b8 aa bd
       -0.10579993 0.028939854 -0.06562025 -0.083358936
000090 c7 74 14 3c ee 5b 2d bc 45 0b b5 bc 76 bb 0e 3d
       0.009061045 -0.010581 -0.0221001 0.034846745
0000a0 7e da 20 bd dc 0c 99 3d b0 73 49 ba c5 23 86 bd
       -0.03927087 0.07473156 -0.000768478 -0.06549791
0000b0 03 d0 1d 3d 82 81 3a bb 8d cd b0 bd 1c 2a 07 bd
       0.038528454 -0.002845854 -0.08632956 -0.032999143
0000c0 ce e2 c9 bd fe 36 e0 bc f5 03 e5 bd 61 a6 81 bd
       -0.09857713 -0.027369972 -0.11182395 -0.063305624
0000d0 ab c0 77 bd cd 2a a4 bd 25 80 1a 3d 8d 00 4d bb
       -0.060486477 -0.08015976 0.037719864 -0.0031280846
0000e0 ae 53 05 be 69 16 ce bd f2 29 fe bd f4 9b f1 bc
       -0.13020203 -0.10062868 -0.12410344 -0.02949331
0000f0 58 28 d9 3c 25 89 c3 bc 96 52 bf 3c e0 a2 46 bd
       0.026508495 -0.023869107 0.02335481 -0.048495173
000100 1f f1 27 bd e3 fd 81 3c 22 7c ce bc e4 a1 8b 3d
       -0.041001435 0.015868133 -0.025205676 0.068179876
000110 24 af f5 bc 22 a0 cc bd 6e dd 4e bc 6e e1 22 bd
       -0.02999074 -0.099914804 -0.012626035 -0.039765768
000120 3b 06 9a bd 72 56 86 3d be 0c b6 bb 9a 93 ac bd
       -0.075207196 0.06559457 -0.005555718 -0.0842659
000130 10 24 ae 3d 44 4d b1 bb 59 35 77 3c ff 8a 90 3d
       0.08502972 -0.005410822 0.015088403 0.070577614
000140 0e eb b0 bd 9a 63 c5 bd 68 39 48 bd 4f 2e 83 bd
       -0.08638583 -0.09638138 -0.048882872 -0.06405317
000150 1e 6d c1 bc 5a 28 e7 bd 73 fe 54 3c 5f 48 bf 3c
       -0.023611601 -0.11286993 0.013000119 0.023349939
000160 f8 29 df bd 02 a5 35 3e 92 b8 cc bd e1 03 bd bd
       -0.10896677 0.17738727 -0.099961415 -0.092292555
000170 49 0d 3a bd 57 ed f0 bc 21 4e c9 3b b3 9f fe bc
       -0.045422826 -0.029410047 0.006143347 -0.03108201
000180 71 b1 80 bd c1 17 0f bd 84 97 6e 3d be f0 41 bd
       -0.06283844 -0.034934763 0.058249965 -0.04734873
000190 8f 35 9d 3c d9 2a 65 3c e8 9b 7b bd d9 fa bf 3c
       0.019190578 0.013987266 -0.06142798 0.023435043
0001a0 7c a2 87 3d 47 f7 fa bc 49 00 8a 3d 18 35 20 3b
       0.06622788 -0.03063549 0.06738336 0.002444571
0001b0 a6 e8 2f 3d f3 8c d0 3c 6d b6 88 3d 3e da b5 3b
       0.04294648 0.025457835 0.0667542 0.005549698
0001c0 e7 03 a0 3d 6f 59 34 bd 12 31 a4 3b b6 8c 1d 3c
       0.07813244 -0.044030603 0.0050107324 0.009616068
0001d0 6b 63 d4 bc 03 02 2b 3d a1 d3 af 3c 5c dc 0b bd
       -0.025926312 0.041749965 0.021463217 -0.034145698
0001e0 33 5f 3b bc 3d d9 15 be 9b f7 09 bd cd e0 3c bd
       -0.0114362715 -0.14633651 -0.0336834 -0.046112824
0001f0 52 d5 bb bd 22 9d 2a bd a9 a4 97 3d 7b 09 35 bd
       -0.09171547 -0.04165376 0.07404453 -0.044198494

fusion_net.2.weight f4 [1, 128]
000000 e2 2c 4e 3e e3 1f 48 3d 97 aa 96 3e 55 f1 b0 3e
       0.20134309 0.048858535 0.29427025 0.34559122
000010 d3 0d a1 3e 1b 03 50 bc 19 eb c9 3d 8f cc 05 3f
       0.3145586 -0.012696053 0.098592944 0.52265257
000020 90 c0 85 3c 8d b3 e6 bd d0 27 2f be 7c 3b 4f 3e
       0.016327173 -0.11264715 -0.17105031 0.20237535
000030 4f 88 53 3e b9 96 80 3e fb 96 97 be 13 05 48 3e
       0.20657466 0.25114992 -0.29607376 0.19533186
000040 b7 3d 57 be 91 a6 79 3e 4c 67 67 be b4 77 6c 3e
       -0.21019636 0.24379946 -0.22597998 0.23092538
000050 73 32 15 3f 2d c7 80 3b dc 62 b6 3c 25 4a 84 be
       0.58280104 0.0039299936 0.022263937 -0.25837818
000060 c6 c4 f7 bc 47 af 8a 3e 53 11 55 be 75 ec 6f 3e
       -0.030245196 0.2708685 -0.2080739 0.23430045
000070 8d f3 ff 3e 87 2d 8c be 8c 78 91 3c f8 1b 7d be
       0.49990502 -0.27378485 0.017757677 -0.247177
000080 c7 06 9c be 41 e2 8b be 11 d7 01 bf a2 a8 05 3e
       -0.3047392 -0.27321056 -0.5071879 0.1305261
000090 80 9b 9d be c1 f5 90 3e 15 c2 95 be 89 f6 ed be
       -0.307827 0.28312495 -0.29249635 -0.46477154
0000a0 77 42 8a 3e b9 93 0d bf 5a 69 98 3e a4 29 99 be
       0.27003834 -0.5530353 0.29767877 -0.29914582
0000b0 91 32 fa bd de cc 87 be 2b 3f 4a 3b 4e c8 93 be
       -0.12216676 -0.2652349 0.0030860405 -0.28863758
0000c0 bf 02 84 be 4f d3 84 be de e5 a4 3b 9c be 77 3c
       -0.25783345 -0.25942466 0.005032285 0.015121128
0000d0 7b 1a 9d 3e 82 43 1e bd 2d e6 2d 3e 0e 07 7c 3e
       0.30684265 -0.0386386 0.16982336 0.24612066
0000e0 9a fc a1 3c e6 26 63 3d 5d 31 8a b9 42 de 6b be
       0.01977377 0.05545702 -0.0002635819 -0.23034003
0000f0 64 16 7a 3e d6 2e 1e 3c 5c be 90 be e9 1e 8c be
       0.24422604 0.009654721 -0.28270233 -0.27367333
000100 85 5d 63 be bd 9d 15 be 88 22 87 be 81 30 93 3e
       -0.22203644 -0.14610954 -0.26393533 0.28747943
000110 47 c2 72 3e 55 61 b7 3c ee d0 ce 3e ca 13 9c bd
       0.23706923 0.022385279 0.40393776 -0.07620962
000120 07 1d 86 3d bf 2e 92 3e 08 7a 7c be ac 6f a6 3b
       0.06548505 0.2855129 -0.24655926 0.0050792303
000130 4b 4e db 3e b2 10 82 3e 57 34 4a be 5e 79 3a 3e
       0.4283317 0.25403363 -0.19746529 0.1821036
000140 5d 9a 88 be 46 0d b3 3e 58 06 58 be 76 50 3a 3a
       -0.2668027 0.34971064 -0.2109617 0.00071073265
000150 78 eb 90 3e 72 f8 b9 3e c5 75 57 be 35 51 03 3f
       0.28304648 0.3632236 -0.2104102 0.5129579
000160 26 5d a1 3e 30 58 0c 3f b6 8d 89 be 9b f8 0a 3c
       0.3151638 0.54822063 -0.2686593 0.008482124
000170 92 9a 99 3e 20 2c 92 3e 71 27 bb be e3 db a9 be
       0.3000074 0.2854929 -0.3655353 -0.33175573
000180 c2 c6 ac 3e 8f 87 7b be ba d2 aa 3d 4a 58 05 be
       0.3374539 -0.2456343 0.08340974 -0.13021961
000190 0f b1 66 3e c1 3e 89 3e 72 d9 c9 3e f7 b2 63 3e
       0.2252848 0.2680569 0.3942371 0.22236238
0001a0 4e d0 b9 3e 2b 06 76 be 83 d1 0b bf bc 41 44 be
       0.36291736 -0.2402579 -0.54616565 -0.191657
0001b0 56 f5 17 bf 08 f6 87 3e f1 cc 0e bd b1 37 ea be
       -0.5935873 0.26554894 -0.034863416 -0.45745614
0001c0 bf 64 35 bf 5d 7c 45 be dd 4d 9d 3e ed a0 8c 3e
       -0.7085685 -0.19285722 0.30723467 0.27466527
0001d0 06 59 11 3f 7a b3 7c be 12 dd 7d 3e 5f 39 93 be
       0.56776464 -0.2467784 0.24791363 -0.28754708
0001e0 40 42 08 bf 3e b2 b4 3e d1 aa 69 be 25 70 44 be
       -0.5322609 0.35292238 -0.22819068 -0.19183405
0001f0 e0 96 b9 be 88 bc 86 3e 66 4e 11 3d 45 d2 75 be
       -0.3624792 0.26315713 0.035475157 -0.24005993
