backend/AI/model_weightsV2.pth (torch, 162403 bytes, 15 tensors)

board_net.0.weight f4 [32, 15, 3, 3]
-0.01875665 -0.31844133 0.039687622 -0.088829055 -0.24883825 -0.16845836 -0.07895625 -0.38024554
-0.14281008 0.00189832 -0.20711306 0.008596957 -0.15408792 -0.005080669 0.14176692 0.16896556
0.03113918 -0.16019118 -0.008616129 0.0027785501 0.06711238 -0.20291373 0.18017225 -0.22919007
0.16227698 -0.22894745 0.036185782 -0.13794835 -0.03685228 -0.051168844 0.030516904 0.18207888
0.029607927 -0.1945178 0.21398422 0.18505973 -0.01538481 -0.26307857 -0.09672258 -0.20725583
0.12538405 0.13912068 -0.06593705 -0.05976054 -0.031554967 0.034157902 -0.02286979 -0.1125522
-0.029775554 -0.13451599 0.050723147 -0.013602866 0.0757694 -0.13593657 -0.101296835 -0.039864935
-0.15522714 0.1190071 -0.10896381 -0.13430957 -0.15993935 0.037118305 -0.09759513 -0.0006027664
-0.0016130938 -0.25391698 0.09676247 -0.06263421 -0.26196608 -0.07254378 -0.026643608 0.025093043
-0.031293243 -0.33021992 -0.07280198 -0.016326722 0.0060830778 0.095566064 0.013315919 -0.16800845
0.1462059 -0.09147047 0.0919058 0.081034385 -0.14517811 -0.18246992 0.010668366 -0.06747679
-0.25027603 0.025573017 -0.29105103 0.008637193 -0.23576236 0.08843684 -0.118859366 0.13512745
0.016361369 0.06673366 0.21179043 -0.23296422 0.035791382 -0.036210395 -0.19051248 -0.17458573
0.11091629 -0.14594227 0.0023272196 -0.16280307 -0.13020638 -0.12621689 -0.0048365793 -0.043610755
-0.16526484 -0.06396677 0.079412624 0.02350318 0.050972745 -0.15351367 -0.111908354 -0.15082169
0.24546845 0.04191857 -0.2575698 -0.12575433 -0.07116422 -0.11903971 0.006210783 -0.01374404
-0.22559167 -0.26031274 -0.058475584 -0.05412635 -0.1660923 -0.06396594 -0.064773664 -0.021205863
0.15698048 0.034141425 0.057517406 0.00010066239 -0.019242404 0.05481803 0.03638774 0.14590971
-0.249934 0.046529956 0.0035518927 0.08257337 -0.067826524 0.18396364 0.07922863 0.02197566
0.08850689 -0.13659404 0.025297267 -0.020121118 -0.23147382 0.12959713 -0.1931549 -0.052903727
-0.08578462 0.1342263 0.20049001 -0.035159264 0.09602845 0.0035200447 0.1560139 0.14534222
-0.09207987 -0.07415511 0.012245187 0.2370584 0.1771743 -0.40366313 0.1450882 -0.11883803
0.14086176 0.13820297 -0.0545863 0.048179515 0.08074949 -0.08814961 0.04181298 -0.06565398
-0.14037171 -0.034324802 -0.08063304 -0.022168046 -0.2590733 0.0069561233 -0.005824671 0.28865823
-0.10556398 -0.10052607 -0.38358498 0.01242364 0.060103748 0.068147905 -0.16936798 0.11980641
-0.1747177 -0.16933899 0.16515881 0.028272353 0.090258464 0.103526555 0.09005649 0.16326319
-0.1119169 -0.30016583 -0.069966495 -0.08854816 -0.09803619 -0.068147376 0.05250865 -0.041494112
0.37307292 -0.16228478 -0.36922073 0.012449617 -0.015098446 -0.17126353 0.18322003 -0.008520501
0.18012625 0.09512725 -0.16339022 -0.04246741 -0.03279763 -0.054370668 -0.10129832 -0.0347267
-0.017284153 -0.0054663867 0.11040309 -0.05723495 0.0017168818 0.06698981 0.09611772 0.028829224
-0.06158843 -0.14333983 -0.1574802 -0.13084663 -0.042836186 -0.1710038 -0.097940385 -0.027089965
0.04674228 0.0027910077 0.050845012 -0.041374493 0.0054172343 0.09993688 0.17300063 0.0907598
00000000: 8ca7 99bc be0a a3be 7d8f 223d 02ec b5bd
00000010: 74cf 7ebe 5980 2cbe d0b3 a1bd 8baf c2be
00000020: ce3c 12be 0dd1 f83a 7215 54be 40da 0c3c
00000030: 39c9 1dbe be7b a6bb 592b 113e 4f05 2d3e
00000040: 9817 ff3c 2809 24be aa2a 0dbc 5618 363b
00000050: 3772 893d 9ec8 4fbe 137f 383e cdb0 6abe
00000060: f02b 263e 3371 6abe 8b37 143d 5542 0dbe
00000070: 6bf2 16bd 6c96 51bd 96fe f93c e372 3a3e
00000080: 538c f23c ad2f 47be ae1e 5b3e 4c80 3d3e
00000090: 9210 7cbc 3cb2 86be 7d16 c6bd df3a 54be
000000a0: ad64 003e a775 0e3e 010a 87bd 78c7 74bd
000000b0: c83f 01bd 28e9 0b3d 6d59 bbbc c581 e6bd
000000c0: ddeb f3bc 8fbe 09be 13c3 4f3d 8ede 5ebc
000000d0: fd2c 9b3d f532 0bbe b774 cfbd 6a49 23bd
000000e0: ddf3 1ebe ffb9 f33d 6b28 dfbd 7388 09be
000000f0: 24c7 23be 5d09 183d f5df c7bd f802 1eba
00000100: 726e d3ba 6801 82be 672b c63d 5d46 80bd
00000110: 6b20 86be d591 94bd b243 dabc ed8f cd3c
00000120: 582d 00bd 9612 a9be 3419 95bd 9ebf 85bc
00000130: 8e54 c73b 24b8 c33d 032b 5a3c 680a 2cbe
00000140: 00b7 153e df54 bbbd 1c39 bc3d 5bf5 a53d
00000150: 92a9 14be 65d9 3abe 5fca 2e3c 4531 8abd
00000160: 2e24 80be 817e d13c a404 95be 0383 0d3c
00000170: b06b 71be 601e b53d 8a6c f3bd da5e 0a3e
00000180: 4708 863c a8ab 883d 97df 583e 2c8e 6ebe
00000190: fc99 123d 5a51 14bd b415 43be 9ac6 32be
000001a0: 1428 e33d e471 15be 4484 183b d9b5 26be
000001b0: d254 05be 003f 01be 2b7c 9ebb 31a1 32bd
000001c0: 303b 29be 0301 83bd 16a3 a23d be89 c03c
000001d0: ccc8 503d b032 1dbe 3530 e5bd 0071 1abe
000001e0: 155c 7b3e ceb2 2b3d 30e0 83be bec5 00be
000001f0: 8cbe 91bd 17cb f3bd d383 cb3b af2e 61bc
00000200: 8101 67be b647 85be 1884 6fbd 97b3 5dbd
00000210: 1a14 2abe 9300 83bd 0ea8 84bd ebb7 adbc
00000220: 7ebf 203e e1d7 0b3d 5f97 6b3d b61a d338
00000230: 3fa2 9dbc df88 603d 500b 153d 5b69 153e
00000240: b3ee 7fbe 3296 3e3d dfc6 683b 3a1c a93d
00000250: a2e8 8abd f760 3c3e 9f42 a23d 4d06 b43c
00000260: 1a43 b53d 4fdf 0bbe 373c cf3c 0bd5 a4bc
00000270: 7907 6dbe 1cb5 043e 66ca 45be 94b1 58bd
00000280: d9af afbd 9f72 093e 414d 4d3e 2903 10bd
00000290: 90aa c43d 8db0 663b 1cc2 1f3e 97d4 143e
000002a0: 5f94 bcbd a2de 97bd 09a0 483c 70bf 723e
000002b0: 2e6d 353e efac cebe 0092 143e 5a61 f3bd
000002c0: 113e 103e 1485 0d3e e295 5fbd e257 453d
000002d0: fd5f a53d c887 b4bd 1644 2b3d 9875 86bd
000002e0: 9abd 0fbe 2a98 0cbd ef22 a5bd c399 b5bc
000002f0: 41a5 84be 31f0 e33b e2dc bebb 03cb 933e
00000300: ee31 d8bd 9de0 cdbd 4065 c4be 868c 4b3c
00000310: 592f 763d 2191 8b3d cd6e 2dbe 105d f53d
00000320: 32e9 32be 3367 2dbe 641f 293e 6c9b e73c
00000330: 6ed9 b83d bb05 d43d 896f b83d 772e 273e
00000340: b034 e5bd 56af 99be 984a 8fbd bd58 b5bd
00000350: 33c7 c8bd da90 8bbd 4f13 573d bbf5 29bd
00000360: 6a03 bf3e fb2d 26be 800a bdbe 7af9 4b3c
00000370: 795f 77bc b55f 2fbe 089e 3b3e 9299 0bbc
00000380: 0473 383e 13d2 c23d c44f 27be 4ff2 2dbd
00000390: cf56 06bd c7b3 5ebd 7e75 cfbd 963d 0ebd
000003a0: 7f97 8dbc 601f b3bb 041b e23d 326f 6abd
000003b0: fe08 e13a f431 893d 5ed9 c43d 442b ec3c
000003c0: 2644 7cbd adc7 12be 7d42 21be a9fc 05be
000003d0: ff74 2fbd 9f1b 2fbe f894 c8bd c6eb ddbc
000003e0: d574 3f3d 57e9 363b dc42 503d 4d78 29bd
000003f0: 0e83 b13b b5ab cc3d 1427 313e 46e0 b93d

board_net.0.bias f4 [32]
-0.04624313 0.033935342 -0.04922795 -0.07846156 -0.17304207 -0.095166616 -0.10072228 -0.082033366
-0.1066661 -0.046259057 0.036640838 -0.0004069242 -0.17312695 -0.07085567 0.004999494 -0.032303307
-0.016732171 -0.12051998 -0.0032319822 -0.12338472 -0.096759565 -0.07770968 -0.008728983 -0.18304658
-0.045341443 0.016379291 -0.1561347 -0.07017459 -0.12297434 -0.10997889 -0.112758346 -0.12067944
00000000: 7069 3dbd c9ff 0a3d 3fa3 49bd 74b0 a0bd
00000010: f131 31be b7e6 c2bd 7c47 cebd 1c01 a8bd
00000020: c273 dabd 237a 3dbd b414 163d 7158 d5b9
00000030: 3148 31be c71c 91bd ccd2 a33b 7950 04bd
00000040: e811 89bc 2ed3 f6bd aacf 53bb 21b1 fcbd
00000050: e129 c6bd 4126 9fbd 0204 0fbc 9070 3bbe
00000060: f3b7 39bd dd2d 863c c6e1 1fbe b2b7 8fbd
00000070: f9d9 fbbd 9d3c e1bd d9ed e6bd c826 f7bd

board_net.2.weight f4 [64, 32, 3, 3]
-0.09712149 0.27792585 0.07751256 -0.02400804 0.17787527 -0.0894733 -0.026265545 0.095623486
-0.011745065 -0.048156768 -0.13831277 -0.026510863 0.064869724 0.07508199 -0.080948696 0.068496406
-0.057247348 -0.099874936 -0.17100145 0.1582528 0.018017473 0.15342978 -0.13537256 -0.1250894
0.35941553 0.15444076 -0.11777025 -0.08297992 0.051303823 -0.086023964 0.08771771 -0.10681634
-0.1237918 -0.046737462 -0.03789728 -0.055564355 -0.15713175 0.041971765 0.104152456 -0.11770977
-0.1518721 -0.1263554 0.3029094 0.21943888 0.2747995 0.012106968 0.010780238 -0.12795627
0.1746552 0.14804967 0.08304429 0.1153445 0.058983814 -0.13498716 -0.04894743 -0.21003327
0.15038063 -0.06321273 -0.083775476 -0.19539675 -0.06987308 0.09394139 0.17244571 0.11198173
-0.05713126 -0.11844973 0.029567411 0.0666197 -0.015439991 -0.01298178 -0.028929418 0.14594081
-0.019102462 -0.14674541 0.028492171 0.0529241 0.35528442 -0.010884039 -0.02234544 0.099514574
0.07545306 -0.17285825 -0.013351383 -0.14122756 -0.0066667474 0.006277512 -0.026067037 0.09687817
-0.15021662 0.11365809 -0.0060848156 -0.06178439 -0.12072139 -0.12324163 0.016570956 0.08597615
-0.08506425 -0.052521743 0.032804985 0.027748311 0.20146537 -0.005174711 -0.038651183 -0.15701076
-0.06891673 -0.11283151 -0.06737111 -0.18479794 -0.11999863 -0.06188672 -0.04482083 0.2093472
0.0953244 0.14681484 -0.025984706 -0.10379297 -0.048852194 0.09772746 0.07408269 -0.29829717
0.10237857 -0.038575556 -0.11534638 0.06018922 -0.079410255 0.075123705 0.094891 -0.1478213
-0.093200736 -0.04407757 0.04440525 0.014213322 0.09268658 0.027567793 -0.01613648 -0.20574862
-0.08951279 -0.00888517 -0.25191912 0.016694462 -0.054822076 0.04895624 0.06139522 -0.13364637
-0.1576263 0.00016213777 -0.03833647 0.033534914 0.17685404 0.008649814 -0.14457208 -0.20000769
-0.029517451 -0.1604317 0.04427268 -0.03617312 0.10820548 -0.09119745 -0.07625729 0.08987347
0.08382888 0.120519735 -0.07954106 0.091422625 -0.0298811 -0.13645898 -0.033026528 -0.12997179
0.052698843 -0.041555922 -0.057789467 0.012064101 -0.063633576 0.09957485 0.014748269 -0.054278176
0.094668575 -0.006588482 0.12904666 -0.08317031 -0.13852993 -0.23369874 -0.032522794 -0.106234856
-0.090761825 -0.02131698 -0.014820674 -0.10648023 -0.08115406 -0.21502875 -0.0022780583 -0.07674214
0.009279988 0.0745609 0.085646406 -0.13262276 0.13161406 -0.011566019 -0.20784795 0.01864537
-0.042666182 0.08789051 0.009933895 0.09818663 -0.07285717 -0.026924305 -0.10395752 0.20267984
-0.014486717 0.11453199 -0.06869243 0.040881444 -0.22717 -0.0640131 -0.15669917 -0.025497371
0.016188579 0.14333571 -0.09132151 -0.28188974 0.060279433 -0.066507876 -0.073994786 -0.09699031
0.06680705 -0.11972481 0.17677677 0.20620085 0.15334284 0.10639642 -0.070641115 -0.07203583
0.0269332 -0.0010293293 0.16300291 0.07563858 -0.1284064 0.06399 -0.1002636 0.06537986
-0.04404079 -0.09289943 -0.04819149 -0.070771314 0.10957721 0.045199983 -0.09878049 0.023831155
-0.1310565 0.28180316 -0.045562252 0.07134687 -0.081435986 -0.17288123 0.012452099 -0.14081582
00000000: a2e7 c6bd 4c4c 8e3e e8be 9e3d 82ac c4bc
00000010: ef24 363e c73d b7bd d72a d7bc 3fd6 c33d
00000020: 606e 40bc 0840 45bd dda1 0dbe 4f2d d9bc
00000030: 6bda 843d 96c4 993d 6ec8 a5bd d847 8c3d
00000040: 327c 6abd 3b8b ccbd 011b 2fbe 060d 223e
00000050: 6199 933c b21c 1d3e 1b9f 0abe 7017 00be
00000060: 5005 b83e b825 1e3e 8731 f1bd 60f1 a9bd
00000070: f523 523d 552d b0bd 58a5 b33d 86c2 dabd
00000080: 8e86 fdbd c86f 3fbd 2e3a 1bbd 7397 63bd
00000090: 25e7 20be 96ea 2b3d e24d d53d d211 f1bd
000000a0: 5c84 1bbe 4f63 01be f116 9b3e 96b4 603e
000000b0: 85b2 8c3e 4e5c 463c 989f 303c f806 03be
000000c0: d0d8 323e 559a 173e 2013 aa3d bd39 ec3d
000000d0: 0399 713d 133a 0abe 1a7d 48bd f612 57be
000000e0: 61fd 193e ad75 81bd 7a92 abbd 1616 48be
000000f0: 9e19 8fbd 5864 c03d 9c95 303e ad56 e53d
00000100: 7802 6abd c695 f2bd 5b37 f23c e96f 883d
00000110: 04f8 7cbc 88b1 54bc 63fd ecbc 8271 153e
00000120: c47c 9cbc 6e44 16be 6a68 e93c f1c6 583d
00000130: d7e7 b53e f852 32bc c90d b7bc 4cce cb3d
00000140: 2287 9a3d c101 31be c2bf 5abc f59d 10be
00000150: bb74 dabb 96b3 cd3b 8a8a d5bc 1068 c63d
00000160: 63d2 19be 93c5 e83d 2263 c7bb a111 7dbd
00000170: c73c f7bd 1c66 fcbd d0bf 873c 4414 b03d
00000180: 2a36 aebd 0a21 57bd 855e 063d 6d50 e33c
00000190: f04c 4e3e 9f90 a9bb b450 1ebd 6ec7 20be
000001a0: 3724 8dbd 3514 e7bd ddf9 89bd ac3b 3dbe
000001b0: d7c1 f5bd ee7c 7dbd 0c96 37bd 1d5f 563e
000001c0: 7039 c33d a156 163e e1dd d4bc 6991 d4bd
000001d0: 3d19 48bd 5625 c83d aab8 973d 68ba 98be
000001e0: dbab d13d 6701 1ebd b93a ecbd f988 763d
000001f0: d8a1 a2bd 75da 993d 3656 c23d 785e 17be
00000200: 07e0 bebd af8a 34bd 48e2 353d fede 683c
00000210: 76d2 bd3d dad5 e13c a730 84bc c4af 52be
00000220: 7b52 b7bd 1b93 11bc 8bfb 80be d3c2 883c
00000230: 1d8d 60bd 5786 483d 8e79 7b3d 98da 08be
00000240: ca68 21be 8703 2a39 b406 1dbd e85b 093d
00000250: 3a19 353e f3b7 0d3c b40a 14be d1ce 4cbe
00000260: 95ce f1bc 3548 24be 4557 353d 442a 14bd
00000270: d69a dd3d bbc5 babd c82c 9cbd 950f b83d
00000280: 7aae ab3d 0dd3 f63d 6ce6 a2bd c93b bb3d
00000290: 35c9 f4bc e7bb 0bbe d346 07bd 5317 05be
000002a0: beda 573d 8b36 2abd a6b4 6cbd 82a8 453c
000002b0: 5252 82bd e6ed cb3d b9a2 713c cb52 5ebd
000002c0: 99e1 c13d 31e4 d7bb cf24 043e 3255 aabd
000002d0: cada 0dbe b94e 6fbe 9f36 05bd a991 d9bd
000002e0: 56e1 b9bd f2a0 aebc 6ad2 72bc 4f12 dabd
000002f0: 1a34 a6bd 7f30 5cbe 7a4b 15bb fc2a 9dbd
00000300: 170b 183c 63b3 983d 6267 af3d 43ce 07be
00000310: d6c5 063e 667f 3dbc 18d6 54be 2dbe 983c
00000320: bcc2 2ebd f1ff b33d c7c1 223c 1216 c93d
00000330: 2436 95bd 5c90 dcbc aee7 d4bd 4e8b 4f3e
00000340: b259 6dbc bf8f ea3d 9eae 8cbd 4d73 273d
00000350: 419f 68be 4d19 83bd bf75 20be dddf d0bc
00000360: e99d 843c 99c6 123e c606 bbbd da53 90be
00000370: 91e7 763d 4835 88bd 948a 97bd dba2 c6bd
00000380: 22d2 883d 4832 f5bd f804 353e 5126 533e
00000390: e805 1d3e 5ee6 d93d 4aac 90bd 8587 93bd
000003a0: 04a3 dc3c 8fea 86ba 3cea 263e 66e8 9a3d
000003b0: f87c 03be 300d 833d 0157 cdbd e0e5 853d
000003c0: 1e64 34bd 0e42 bebd 7164 45bd 8df0 90bd
000003d0: 046a e03d 9e23 393d 6d4d cabd 8e39 c33c
000003e0: ad33 06be 8148 903e 7c9f 3abd 4f1e 923d
000003f0: e9c7 a6bd c707 31be e303 4c3c 0632 10be

board_net.2.bias f4 [64]
-0.1711475 -0.13519308 -0.03360349 -0.13587348 -0.14446181 -0.13272992 -0.11637548 -0.09298804
-0.080996096 -0.020118352 -0.14720039 -0.117868274 -0.112742074 -0.1420295 -0.041622028 -0.13304144
-0.06722289 -0.12790287 -0.056938123 -0.16846764 -0.106928706 -0.09777149 -0.14855732 -0.13478573
-0.05384536 -0.11306944 -0.12331872 -0.07908927 -0.0962351 -0.109256245 -0.083099835 -0.16520119
-0.106180765 -0.09366668 -0.1401724 -0.105927326 -0.12495802 -0.18291739 -0.13948067 -0.13722838
-0.13897169 -0.0719241 -0.11076522 -0.11520051 -0.11064341 -0.06006071 -0.1712488 -0.12412783
-0.1162531 -0.15692787 -0.08206758 -0.10175137 -0.14235394 -0.13484944 -0.057700586 -0.110123605
-0.16338596 -0.13037412 -0.10908417 -0.09211352 -0.09394655 -0.16691093 -0.09517827 -0.13723592
00000000: 4a41 2fbe 0e70 0abe d0a3 09bd 6b22 0bbe
00000010: cced 13be 5aea 07be 4556 eebd 8370 bebd
00000020: 48e1 a5bd 3ecf a4bc b3bb 16be ec64 f1bd
00000030: 51e5 e6bd 2e70 11be dc7b 2abd 043c 08be
00000040: 28ac 89bd f8f8 02be f337 69bd c882 2cbe
00000050: 70fd dabd 6b3c c8bd 691f 18be 4505 0abe
00000060: f48c 5cbd f390 e7bd 868e fcbd 8ef9 a1bd
00000070: e816 c5bd bdc1 dfbd 3f30 aabd 802a 29be
00000080: 4d75 d9bd 51d4 bfbd 5b89 0fbe 6df0 d8bd
00000090: fee9 ffbd b24e 3bbe 05d4 0ebe 9985 0cbe
000000a0: 984e 0ebe f14c 93bd e0d8 e2bd 3fee ebbd
000000b0: 0399 e2bd 3802 76bd d85b 2fbe bb36 febd
000000c0: 1b16 eebd b3b1 20be 0c13 a8bd 0663 d0bd
000000d0: 3bc5 11be f915 0abe 7357 6cbd 7c88 e1bd
000000e0: a64e 27be cb80 05be 8567 dfbd 03a6 bcbd
000000f0: 0c67 c0bd b3ea 2abe d3ec c2bd 9387 0cbe

cards_net.0.weight f4 [32, 14]
-0.11607613 -0.03135897 -0.006519605 0.09032092 -0.15511344 0.13348807 -0.07455098 -0.07773574
-0.14982519 -0.108549304 -0.14170007 -0.003033541 0.0004539662 -0.10245849 0.1456193 -0.039153505
0.014464215 -0.03268046 0.024319729 0.050690882 -0.12868482 -0.055289 -0.19488332 0.024642067
0.07204674 0.29184744 0.05838687 -0.10212242 0.1609207 -0.07179898 0.017885301 0.0042363494
0.17827003 -0.0012107575 -0.0602758 -0.013970085 0.036776952 0.19810612 0.03499653 -0.2621368
-0.1669143 0.089489855 -0.091693535 -0.11017074 -0.1803178 0.0799952 -0.18188791 -0.15730691
0.0042978693 0.010657143 -0.06810105 -0.100418516 0.1468232 0.06759364 -0.0889019 0.18042356
-0.023255995 -0.097647 0.108908355 0.1726039 -0.1149094 -0.20478062 -0.08784673 -0.09939014
-0.07758298 0.111433595 -0.16209519 0.11927163 0.08342118 0.16593817 0.081123546 -0.09660619
-0.26132676 0.13573758 0.051567815 0.18483415 0.033038914 0.03614835 -0.10552332 -0.10933978
0.14103681 -0.049295332 0.0014681836 0.07516075 -0.06285407 0.16201419 -0.10185678 -0.17582156
-0.12359089 0.13220043 -0.13339676 0.0992964 -0.18259606 0.18229558 -0.07186183 -0.1408272
0.12543032 0.2028174 -0.10627525 -0.070049234 -0.05054081 0.04311512 -0.059502408 -0.011147726
0.057033863 -0.1449144 -0.09456611 -0.06617524 0.073620364 -0.16106458 0.047787488 -0.07345599
-0.05844464 -0.19708696 0.0065579037 -0.1867558 -0.20602527 0.17319575 -0.11317624 -0.03505739
-0.10784329 0.11735947 0.14530934 -0.23509283 0.022743024 0.30050644 -0.005837877 0.12373186
0.14856456 -0.17098881 -0.16898136 0.052265957 -0.09115298 0.053280726 -0.019692296 0.04405851
-0.1784288 0.23159726 -0.097415335 -0.19132343 0.012145203 -0.08358975 -0.15950069 -0.1365589
0.14887336 0.010511952 -0.111219406 0.13146514 -0.02739703 -0.0010576233 -0.048247088 -0.011359737
-0.07312286 -0.04068429 -0.07379724 0.20542799 -0.13059017 -0.06402945 0.1476278 0.13672553
0.10711201 0.016249422 -0.15240522 -0.14177208 0.002869175 0.20167485 0.067023054 0.00643991
-0.14594659 -0.15187131 0.121908285 0.18721355 0.1349004 0.0524289 -0.22592925 0.07348434
0.06006145 0.047371868 0.25513414 -0.06858895 0.22356343 -0.30313483 -0.116942905 0.116453975
-0.06271437 -0.050056644 -0.052920006 -0.07959065 0.045174666 -0.13690758 -0.056081973 0.14247848
-0.0778217 -0.14433944 0.21525185 0.1789024 -0.025647108 -0.2360589 -0.13620195 -0.031174373
-0.027180653 -0.20474602 0.084755026 0.112424076 -0.03309838 0.009642108 -0.12473821 -0.14469269
-0.028974878 0.09327969 0.094945274 -0.035491012 0.020514233 0.14921986 -0.107436985 -0.03311868
0.0686431 0.0025790888 0.029342998 -0.027100654 0.00311235 0.045972936 -0.06628025 0.07597302
0.20558158 0.12356173 0.027001444 -0.023206832 0.045958243 0.020248355 -0.10171031 0.16453408
-0.0360308 0.06871893 -0.09562174 -0.24794331 -0.24334697 0.010038013 -0.14785355 -0.13325404
-0.056091208 -0.18795677 0.014479657 -0.05860264 -0.04798704 -0.17775762 -0.05313139 -0.12575212
0.1669452 0.2024903 0.13144527 0.13311319 -0.03462422 -0.12881535 0.026704507 -0.15637234
00000000: 52b9 edbd 4372 00bd 69a2 d5bb 2dfa b83d
00000010: 0fd6 1ebe 19b1 083e 2fae 98bd ea33 9fbd
00000020: c66b 19be 194f debd d319 11be 5fce 46bb
00000030: 5002 ee39 c2d5 d1bd 3a1d 153e 6d5f 20bd
00000040: 51fb 6c3c f2db 05bd 2b3a c73c 3ea1 4f3d
00000050: f4c5 03be b876 62bd 7e8f 47be 29de c93c
00000060: 3e8d 933d 076d 953e 1227 6f3d 8f25 d1bd
00000070: 65c8 243e 580b 93bd 3284 923c 13d1 8a3b
00000080: 6b8c 363e 48b2 9eba c2e3 76bd c9e2 64bc
00000090: 6ea3 163d 55dc 4a3e 8558 0f3d cb36 86be
000000a0: 95eb 2abe 7546 b73d d2c9 bbbd 32a1 e1bd
000000b0: 3ba5 38be 86d4 a33d d340 3abe 1015 21be
000000c0: 24d5 8c3b 4c9b 2e3c 9078 8bbd 39a8 cdbd
000000d0: d258 163e 896e 8a3d 3312 b6bd f4c0 383e
000000e0: 5b83 bebc 26fb c7bd 580b df3d 14bf 303e
000000f0: 9f55 ebbd 03b2 51be fde8 b3bd 0f8d cbbd
00000100: d3e3 9ebd 4c37 e43d 48fc 25be af44 f43d
00000110: b9d8 aa3d b2eb 293e 1a24 a63d 77d9 c5bd
00000120: 9fcc 85be cbfe 0a3e c638 533d 2a45 3d3e
00000130: d053 073d 4b10 143d 9c1c d8bd 89ed dfbd
00000140: f46b 103e e7e9 49bd 1170 c03a e1ed 993d
00000150: a2b9 80bd 0ce7 253e 4a9a d0bd 910a 34be
00000160: 381d fdbd 8d5f 073e 2999 08be e95b cb3d
00000170: 76fa 3abe b1ab 3a3e 4c2c 93bd 0135 10be
00000180: ce70 003e 5daf 4f3e d7a6 d9bd f975 8fbd
00000190: e103 4fbd 7b99 303d ccb8 73bd f4a4 36bc
000001a0: 579c 693d 7164 14be e0ab c1bd e286 87bd
000001b0: 46c6 963d 1dee 24be d0bc 433d 1870 96bd
000001c0: a663 6fbd 2ad1 49be afe3 d63b ea3c 3fbe
000001d0: 4af8 52be 3a5a 313e f2c8 e7bd 5698 0fbd
000001e0: f1dc dcbd 295a f03d f9cb 143e 2dbc 70be
000001f0: 944f ba3c fbdb 993e a94b bfbb 2167 fd3d
00000200: 4f21 183e b117 2fbe 7309 2dbe d414 563d
00000210: 6aae babd e43c 5a3d bd51 a1bc b276 343d
00000220: 0ab6 36be d527 6d3e b181 c7bd 4aea 43be
00000230: acfc 463c 1a31 abbd 2654 23be 19d6 0bbe
00000240: 4272 183e 533a 2c3c 00c7 e3bd cc9e 063e
00000250: bc6f e0bc f39f 8aba bd9e 45bd 311e 3abc
00000260: 70c1 95bd 92a4 26bd 0223 97bd b75b 523e
00000270: 6eb9 05be df21 83bd be2b 173e c701 0c3e
00000280: 8b5d db3d 821d 853c 1d10 1cbe b32c 11be
00000290: c508 3c3b da83 4e3e 6243 893d e105 d33b
000002a0: 0673 15be 2784 1bbe 0dab f93d e9b4 3f3e
000002b0: 5523 0a3e b0bf 563d ff59 67be f57e 963d
000002c0: ff02 763d 0109 423d f1a0 823e 5d78 8cbd
000002d0: d0ed 643e 7d34 9bbe c37f efbd 6c7f ee3d
000002e0: 6470 80bd 3208 4dbd a6c2 58bd 6c00 a3bd
000002f0: 1209 393d 8031 0cbe 36b6 65bd e1e5 113e
00000300: fc60 9fbd b8cd 13be fb6a 5c3e 3132 373e
00000310: e219 d2bc 6db9 71be 8678 0bbe 6661 ffbc
00000320: f6a9 debc f1a8 51be 0b94 ad3d 983e e63d
00000330: 2b92 07bd eff9 1d3c bf76 ffbd 522a 14be
00000340: b95c edbc 6c09 bf3d ab72 c23d 065f 11bd
00000350: 770d a83c 17cd 183e ec07 dcbd 74a7 07bd
00000360: c194 8c3d ee05 293b ba60 f03c 3102 debc
00000370: 91f8 4b3b 1e4e 3c3d f1bd 87bd be97 9b3d
00000380: fa83 523e ef0d fd3d 2232 dd3c 411c bebc
00000390: b63e 3c3d e1df a53c 7f4d d0bd 9f7b 283e
000003a0: 0895 13bd 83bc 8c3d 55d5 c3bd dae4 7dbe
000003b0: f32f 79be 7a76 243c ec66 17be bf73 08be
000003c0: e5bf 65bd bd77 40be 153c 6d3c 5209 70bd
000003d0: 0f8e 44bd 1806 36be 4da0 59bd 2ac5 00be
000003e0: aff3 2a3e 9e59 4f3e 9799 063e d34e 083e
000003f0: 20d2 0dbd 2ce8 03be 69c3 da3c 1220 20be

cards_net.0.bias f4 [32]
0.25115654 -0.10824958 -0.06657244 0.120676346 -0.04234943 -0.13687381 -0.16606925 0.213136
0.01899177 0.13856311 0.17003049 -0.050984826 -0.05320578 -0.12562802 0.13126412 -0.18611255
-0.008147966 0.14122142 -0.016283419 0.06323227 0.024846474 -0.08793712 0.23453893 0.0962333
-0.22699364 -0.15373027 0.1402428 0.07491774 -0.086650096 0.081698485 0.026236432 -0.06048523
00000000: 9797 803e f5b1 ddbd 2257 88bd 2925 f73d
00000010: 9976 2dbd a628 0cbe 0f0e 2abe 5340 5a3e
00000020: a194 9b3c 7de3 0d3e 791c 2e3e 77d5 50bd
00000030: 4eee 59bd a2a4 00be 1a6a 063e 4a94 3ebe
00000040: 0c7f 05bc 599c 103e ce64 85bc ec7f 813d
00000050: d58a cb3c 6018 b4bd f92a 703e f715 c53d
00000060: 0571 68be 786b 1dbe cf9b 0f3e 796e 993d
00000070: 9b75 b1bd 8951 a73d c9ed d63c 5cbf 77bd

cards_net.1.weight f4 [32, 32]
0.030705031 -0.06891467 0.1084649 0.054720405 -0.12984595 -0.016278312 -0.06849085 0.15532388
-0.028087813 -0.0045847883 -0.038622 -0.11595405 0.06670193 0.15315855 -0.12885448 -0.10085207
-0.08782485 0.08401463 0.12514664 0.0130504845 -0.0909894 0.09884263 0.11554098 0.13695022
0.13425678 0.12393068 0.013574113 -0.09376222 0.07444553 -0.14740966 -0.01720083 -0.12325768
-0.06656357 0.042149004 -0.049742743 -0.0042016604 0.046835486 0.059681352 0.0046602455 0.0102410475
0.043489303 -0.105031826 -0.0035515002 -0.09894727 0.08906748 0.17403044 0.05943972 0.014142077
0.094699465 0.10454288 0.0392299 0.08275508 0.07516171 0.08436327 -0.075821385 -0.04611984
-0.012117524 -0.0008029699 0.033315968 -0.055807054 -0.06786731 -0.13447212 0.061558988 -0.070044376
-0.07207764 -0.10699396 0.11640265 0.11401635 0.12886444 -0.012440647 0.114239186 -0.09057945
0.17121378 -0.04743184 -0.08078714 -0.036097314 0.08295012 0.030659623 0.0089524705 0.03723687
-0.15535115 -0.025652498 0.028839909 -0.06582366 -0.088122375 0.082803324 0.105681166 0.05188548
-0.04367054 0.0068873367 0.048212294 0.04172456 -0.02449687 0.027667955 -0.07270192 0.0966047
-0.069928735 -0.104522794 -0.017525855 0.044184275 -0.06266743 -0.12580633 0.029720075 0.09710178
-0.08005681 0.13315846 0.0026159978 -0.11396501 0.11408386 0.13591544 0.06147219 -0.031037105
0.035118826 0.065443955 0.059086952 -0.039597332 0.010822536 -0.12242062 0.14024462 0.1514029
-0.008811711 -0.108125485 0.14000422 -0.054817047 -0.019322492 -8.761388e-05 -0.03443203 -0.099885225
-0.04448646 -0.007300515 0.052522484 -0.02513616 -0.036150973 -0.08621473 -0.098416604 -0.05514392
0.0061240923 0.10885431 0.008403214 -0.0016045832 0.09341208 0.11922461 0.032466818 0.056745395
-0.041201364 0.036106903 -0.09362146 0.026953084 0.02724654 -0.057191126 -0.024100728 -0.10127513
-0.069989406 -0.025866026 0.044089776 0.1798914 -0.049502246 -0.10084967 0.13282512 -0.08079943
-0.101365365 0.060362414 -0.08354709 -0.016904186 0.09028017 0.12541279 0.077827476 -0.11992684
-0.022153717 -0.10325089 0.016295128 0.11506898 -0.011325089 -0.1990847 -0.0090863425 -0.021290062
-0.033190936 0.11720612 -0.15153205 -0.023798853 -0.0043490296 0.023077033 -0.082362264 0.13506037
-0.057060584 0.12510225 0.05578973 -0.027082998 0.013401636 0.079233155 0.07244253 0.11302419
-0.070462644 0.024040528 -0.0053725326 -0.06263355 0.04647945 0.03126351 0.005884669 0.053380188
0.005743057 0.030266512 -0.09696122 0.046083815 -0.041572534 -0.15020823 -0.07246895 0.121696055
0.015560081 0.017384699 0.0024401038 0.094653994 -0.098034225 -0.106293835 0.11890868 -0.20650643
0.029983638 -0.070665166 -0.023281094 0.05182274 -0.065909624 0.1510409 0.111586414 0.13609521
-0.029355979 -0.04911465 -0.09538237 -0.072071895 0.02387001 0.12618606 -0.06568376 0.095757715
0.071375616 0.031256743 0.14982136 0.0082479045 0.030931858 0.08740705 -0.1464807 0.11311361
0.03378416 0.079608455 0.020530272 -0.032195017 0.13544741 -0.11285173 -0.036546092 0.079049684
0.03434744 0.09790491 0.11120797 0.06728534 0.0843445 0.12869327 -0.13067043 -0.06585571
00000000: 1e89 fb3c 2223 8dbd d822 de3d 8122 603d
00000010: 56f6 04be 185a 85bc ee44 8cbd 390d 1f3e
00000020: 6a18 e6bc fe3b 96bb 1a32 1ebd 5179 edbd
00000030: 059b 883d 98d5 1c3e 6ef2 03be 888b cebd
00000040: 84dd b3bd dd0f ac3d 7126 003e b3d1 553c
00000050: a758 babd 016e ca3d c0a0 ec3d ae3c 0c3e
00000060: 9c7a 093e 5ecf fd3d f565 5e3c 6806 c0bd
00000070: e676 983d 8ff2 16be c1e8 8cbc 866e fcbd
00000080: 7b52 88bd 6fa4 2c3d 0cbf 4bbd 15ae 89bb
00000090: 91d6 3f3d 6f74 743d f9b4 983b 11ca 273c
000000a0: d721 323d ed1a d7bd 49c0 68bb dea4 cabd
000000b0: 0369 b63d 0935 323e 1077 733d 2cb4 673c
000000c0: cbf1 c13d 941a d63d 88af 203d 7f7b a93d
000000d0: 62ee 993d a6c6 ac3d 3e48 9bbd 28e8 3cbd
000000e0: 9488 46bc 667e 52ba 5376 083d f095 64bd
000000f0: 04fe 8abd 0fb3 09be 4725 7c3d 6d73 8fbd
00000100: 719d 93bd a61f dbbd 8364 ee3d 6781 e93d
00000110: 0af5 033e dbd3 4bbc 3cf6 e93d b881 b9bd
00000120: aa52 2f3e e447 42bd ba73 a5bd c7da 13bd
00000130: c1e1 a93d e429 fb3c 62ad 123c b085 183d
00000140: 5f14 1fbe 3025 d2bc ac41 ec3c 8ece 86bd
00000150: 8179 b4bd ca94 a93d 5e6f d83d de85 543d
00000160: e1df 32bd 2baf e13b 417a 453d 5fe7 2a3d
00000170: a9ad c8bc e8a7 e23c bfe4 94bd afd8 c53d
00000180: cc36 8fbd 0c10 d6bd 6292 8fbc 92fa 343d
00000190: c857 80bd 60d3 00be 8477 f33c 4cdd c63d
000001a0: d3f4 a3bd b15a 083e 2971 2b3b 7d66 e9bd
000001b0: cca4 e93d 6b2d 0b3e 43ca 7b3d 8741 febc
000001c0: c2d8 0f3d 7b07 863d 2905 723d d030 22bd
000001d0: 0251 313c a9b7 fabd 499c 0f3e 5d09 1b3e
000001e0: ff5e 10bc e570 ddbd 445d 0f3e d787 60bd
000001f0: 344a 9ebc 58bd b7b8 9a08 0dbd a090 ccbd
00000200: 6f37 36bd 2939 efbb d121 573d 59ea cdbc
00000210: 0b13 14bd 5991 b0bd a58e c9bd 97de 61bd
00000220: 9cac c83b 02ef de3d a2ad 093c e150 d2ba
00000230: d54e bf3d 082c f43d edfb 043d dc6d 683d
00000240: c3c2 28bd d5e4 133d 9cbc bfbd b7cc dc3c
00000250: 2334 df3c 3e41 6abd e46e c5bc 5669 cfbd
00000260: 9b56 8fbd fde4 d3bc 7b97 343d 7335 383e
00000270: dec2 4abd 468a cebd 4f03 083e 2c7a a5bd
00000280: a598 cfbd 943e 773d bd1a abbd a67a 8abc
00000290: cfe4 b83d 366c 003e 0364 9f3d 349c f5bd
000002a0: b67b b5bc 3475 d3bd 5c7d 853c 49a9 eb3d
000002b0: de8c 39bc dcdc 4bbe e2de 14bc 7f68 aebc
000002c0: 38f3 07bd c309 f03d 382b 1bbe d0f5 c2bc
000002d0: 4e82 8ebb 0c0c bd3c 8cad a8bd 444d 0a3e
000002e0: 5cb8 69bd ce1a 003e c683 643d 2add ddbc
000002f0: 8992 5b3c fe44 a23d c05c 943d 3a79 e73d
00000300: b84e 90bd a4f0 c43c 120c b0bb 0546 80bd
00000310: 3c61 3e3d 2b0e 003d 2ed4 c03b 2fa5 5a3d
00000320: 4130 bc3b 7af1 f73c 9b93 c6bd 62c2 3c3d
00000330: f647 2abd 30d0 19be 9a6a 94bd c83b f93d
00000340: b6ef 7e3c 5b6a 8e3c 26ea 1f3b f4d9 c13d
00000350: 2bc6 c8bd 95b0 d9bd 6586 f33d 6c76 53be
00000360: 3fa0 f53c e6b8 90bd feb7 bebc 1544 543d
00000370: a0fb 86bd 77aa 1a3e 6b87 e43d 8b5c 0b3e
00000380: f37b f0bc 712c 49bd d557 c3bd 6e9a 93bd
00000390: 0a8b c33c eb36 013e 3585 86bd 9f1c c43d
000003a0: 612d 923d 1207 003d c56a 193e 3822 073c
000003b0: cf64 fd3c 7802 b33d 09ff 15be 1ca8 e73d
000003c0: 4261 0a3d c209 a33d 1a2f a83c ecde 03bd
000003d0: bab2 0a3e cf1e e7bd 5bb1 15bd cde4 a13d
000003e0: e7af 0c3d 5f82 c83d 01c1 e33d e5cc 893d
000003f0: cfbc ac3d 2bc8 033e 78ce 05be 5cdf 86bd

cards_net.1.bias f4 [32]
-0.1279464 -0.007102267 0.0506849 0.022919672 -0.12393696 -0.019210547 0.0896595 -0.006859494
-0.086159095 -0.087918356 0.05133384 -0.05466228 -0.046045348 -0.08017724 0.009164223 -0.0899271
-0.06438664 0.10507905 0.031916793 0.06626916 -0.041940477 0.024311943 0.0395353 -0.05466608
0.0114769535 -0.02963619 0.04235974 -0.052531306 -0.048236445 0.016552594 0.1210018 -0.07244951
00000000: 6204 03be 22ba e8bb f89a 4f3d 09c2 bb3c
00000010: a9d2 fdbd 705f 9dbc 669f b73d 9bc5 e0bb
00000020: 2e74 b0bd 8a0e b4bd 6f43 523d 8ee5 5fbd
00000030: 0c9a 3cbd f733 a4bd 8a25 163c b32b b8bd
00000040: 25dd 83bd af33 d73d 2fbb 023d 20b8 873d
00000050: c7c9 2bbd d729 c73c c4ef 213d 8ae9 5fbd
00000060: d509 3c3c 98c7 f2bc 6881 2d3d 112b 57bd
00000070: 9493 45bd 4e99 873c cbcf f73d 6960 94bd

score_net.0.weight f4 [8, 1]
0.028745413 -2.1196523 0.93675303 0.3605255 -1.974178 2.2352514 -2.477962 -1.7532973
00000000: 807b eb3c 62a8 07c0 0ccf 6f3f cc96 b83e
00000010: ddb1 fcbf 5c0e 0f40 ee96 1ec0 0c6c e0bf

score_net.0.bias f4 [8]
-0.5750159 0.61472136 -0.98536813 -0.86211205 0.6632521 0.84633374 0.34910664 0.47921595
00000000: 3e34 13bf 615e 1d3f 1641 7cbf 60b3 5cbf
00000010: e4ca 293f 54a9 583f 1bbe b23e cb5b f53e

stage_net.0.weight f4 [8, 1]
-0.53686404 -0.9099467 0.85129356 -0.706596 -0.2961434 -0.75121903 0.3009738 0.19990942
00000000: ec6f 09bf 44f2 68bf 60ee 593f 7ae3 34bf
00000010: 1ca0 97be e44f 40bf 3d19 9a3e 0eb5 4c3e

stage_net.0.bias f4 [8]
-0.067094564 -0.83741164 -0.08566919 -0.41132712 -0.2870431 -0.8029758 -0.23011652 -0.15002735
00000000: e068 89bd 9c60 56bf 5473 afbd 7899 d2be
00000010: 50f7 92be d28f 4dbf aaa3 6bbe c5a0 19be

fusion_net.0.weight f4 [128, 112]
-0.11739645 0.04111657 0.054448333 0.03988436 -0.047691442 -0.065494455 -0.035760876 -0.011319468
0.036601126 0.038237218 -0.0027446353 -0.008852697 -0.07862666 -0.04508291 0.022035895 -0.013850085
-0.039377827 -0.04048459 -0.025257496 -0.07672273 0.012922111 -0.060309127 0.06870342 -0.031948447
-0.0066602905 0.12314409 -0.05322967 0.035772257 -0.03690395 0.060848385 0.017617425 -0.034035906
-0.062777676 0.06094172 -0.00745592 -0.042359825 -0.04123247 0.016494619 -0.10813197 -0.003054451
-0.09531827 0.06711216 0.046187323 0.06284719 0.008440101 -0.06304717 0.031521868 -0.12281741
0.0058059017 0.06341679 0.06825721 -0.07020323 0.047479577 0.08323804 0.09208384 -0.008671799
0.11368341 -0.041785892 -0.027884657 0.011870413 0.022227451 -0.06402996 0.0045279902 0.12271502
-0.00055035454 -0.082811646 0.09683417 0.032938864 0.11099001 0.08655153 -0.04044897 -0.007327661
-0.075891025 0.02256694 0.0043850327 0.057615884 0.014780072 -0.066391684 -0.08126874 0.040241584
0.07940225 0.023139896 0.03431652 0.07785117 -0.040436834 0.04451431 0.06589245 -0.086629756
-0.0058489456 -0.06096476 -0.044442065 0.060347486 0.03475895 -0.095015846 -0.047214743 -0.09253576
0.037432972 -0.0802211 0.05846124 0.05345897 -0.10972733 7.603218e-05 0.0011060248 -0.1178089
-0.08588032 -0.04688364 0.076358795 0.036301367 -0.013308404 0.067273036 0.071681425 -0.021663375
0.103268676 0.19733065 -0.23796317 0.052395266 0.20169272 0.14995012 0.19711939 0.052843597
-0.07954011 -0.088207245 0.1791308 0.059732366 0.2199628 0.112067826 -0.01770843 0.07427227
0.08329021 0.1815483 0.059520423 0.15200931 0.091007166 0.059255857 0.08312702 0.07842385
0.01826085 0.0801854 -0.061595596 0.014832578 0.082360655 0.065757826 0.044553816 0.020935979
-0.01980185 0.14740646 -0.029267868 0.12693776 0.10427393 0.043765973 0.1944418 -0.1098773
0.019321186 0.06436662 0.08929564 0.048355695 0.012412077 -0.004711763 0.14951468 0.1448745
-0.009485949 0.17682405 0.04193433 0.06455268 0.018873507 0.017289987 -0.06136277 0.1728608
0.01559297 0.0010768296 0.18938155 0.014278037 0.19030254 -0.0042255158 0.11346018 0.04822472
-0.02048471 -0.0142848445 -0.07042988 -0.05050806 -0.08270561 -0.010835396 -0.10034647 0.053417034
-0.013869643 0.04524248 0.003493421 0.013360495 0.08055831 0.01754072 -0.037351184 -0.058476
-0.06427034 0.07179186 0.038987037 0.061399918 0.018982943 0.032739367 -0.019475756 0.05368931
-0.03349772 -0.03723022 0.060152117 -0.05163711 0.018183663 0.038471945 0.01623371 -0.041815825
0.05633352 0.028756365 -0.08943423 -0.08513352 0.096695915 -0.28457785 0.37505624 0.095748946
-0.005943227 -0.028715525 -0.048215386 -0.059132136 0.042208776 0.021036897 0.01957933 0.085043825
0.062422957 0.0773144 -0.20869586 0.07598834 0.020325804 0.16616255 0.13314988 0.12855987
0.036468785 -0.15540276 0.1282478 0.039922863 0.20530286 -0.004001866 -0.05504472 0.122879446
0.17641705 0.03247223 0.17733382 -0.013189468 0.19483688 -0.041886806 0.07805891 0.04935698
-0.035994403 0.2081293 0.060167838 0.039491184 0.019957997 -0.093542635 0.14534213 0.18932253
00000000: 8d6d f0bd d969 283d 3705 5f3d c85d 233d
00000010: 1a58 43bd f521 86bd ff79 12bd 4a75 39bc
00000020: 10eb 153d a19e 1c3d 57df 33bb e70a 11bc
00000030: 0407 a1bd dca8 38bd 9f84 b43c 78eb 62bc
00000040: a54a 21bd 2bd3 25bd cfe8 cebc cf20 9dbd
00000050: 43b7 533c b406 77bd 61b4 8c3d 60dc 02bd
00000060: 913e dabb f832 fc3d 5b07 5abd ee85 123d
00000070: 9928 17bd 283c 793d 6b52 903c 3c69 0bbd
00000080: 9591 80bd 069e 793d ca50 f4bb 7f81 2dbd
00000090: 61e3 28bd b91f 873c 4b74 ddbd 2f2d 48bb
000000a0: 3a36 c3bd 1a72 893d eb2e 3d3d 07b6 803d
000000b0: 5948 0a3c e01e 81bd 131d 013d b287 fbbd
000000c0: 6f3f be3b a9e0 813d 70ca 8b3d b6c6 8fbd
000000d0: f279 423d b578 aa3d 7496 bc3d 2914 0ebc
000000e0: d9d2 e83d af27 2bbd 5d6e e4bc 1f7c 423c
000000f0: 5816 b63c 2422 83bd 895f 943b 0352 fb3d
00000100: ab45 10ba 2799 a9bd fe50 c63d e7ea 063d
00000110: bb4e e33d ee41 b13d d2ad 25bd e01c f0bb
00000120: c16c 9bbd 4ede b83c 52b0 8f3b a2fe 6b3d
00000130: 1d28 723c 5df8 87bd 3a70 a6bd 5cd4 243d
00000140: a69d a23d e18f bd3c 7b8f 0c3d 6f70 9f3d
00000150: 18a1 25bd a354 363d 9ff2 863d f16a b1bd
00000160: 83a8 bfbb 2fb6 79bd e208 36bd ed2e 773d
00000170: 675f 0e3d ab97 c2bd 3f64 41bd 6383 bdbd
00000180: 5153 193d f64a a4bd 0e75 6f3d cbf7 5a3d
00000190: b9b8 e0bd 7773 9f38 09f8 903a cb45 f1bd
000001a0: 05e2 afbd 0f09 40bd 0062 9c3d beb0 143d
000001b0: 7e0b 5abc 72c6 893d b6cd 923d 6477 b1bc
000001c0: 877e d33d 0c11 4a3e 9eac 73be 6b9c 563d
000001d0: 8988 4e3e 868c 193e aad9 493e 8772 583d
000001e0: ede5 a2bd 00a6 b4bd 106e 373e eda9 743d
000001f0: ee3d 613e d183 e53d 4511 91bc 0f1c 983d
00000200: 0f94 aa3d cce7 393e b0cb 733d 54a8 1b3e
00000210: f761 ba3d 45b6 723d 803e aa3d af9c a03d
00000220: c797 953c 3e38 a43d aa4b 7cbd 5704 733c
00000230: b4ac a83d 0aac 863d 107e 363d ee81 ab3c
00000240: 7d37 a2bc b8f1 163e 2bc3 efbc f9fb 013e
00000250: 928d d53d f343 333d c01b 473e 5a07 e1bd
00000260: 7747 9e3c a5d2 833d a2e0 b63d 9f10 463d
00000270: 065c 4b3c 2265 9abb 601a 193e fb59 143e
00000280: f46a 1bbc 5d11 353e 55c3 2b3d 3234 843d
00000290: 9d9c 9a3c bba3 8d3c 8757 7bbd 6c02 313e
000002a0: a879 7f3c 6824 8d3a 3ded 413e 6dee 693c
000002b0: abde 423e 3276 8abb d05d e83d 4987 453d
000002c0: 8dcf a7bc fb0a 6abc 8a3d 90bd 8ae1 4ebd
000002d0: 8f61 a9bd f286 31bc 7382 cdbd d2cb 5a3d
000002e0: 803d 63bc 2e50 393d e1f1 643b fae5 5a3c
000002f0: c1fb a43d 8eb1 8f3c 8efd 18bd 8884 6fbd
00000300: 2ba0 83bd 9c07 933d dfb0 1f3d 7b7e 7b3d
00000310: 1e82 9b3c b719 063d 9f8b 9fbc 52e9 5b3d
00000320: e834 09bd b77e 18bd 1162 763d 6f81 53bd
00000330: e8f5 943c c294 1d3d 8ffc 843c 1247 2bbd
00000340: fabd 663d 7892 eb3c 4b29 b7bd 7c5a aebd
00000350: 8208 c63d 30b4 91be 5f07 c03e 0618 c43d
00000360: 67bf c2bb d23c ebbc 7f7d 45bd 8a34 72bd
00000370: 1ce3 2c3d 9255 ac3c d564 a03c 752b ae3d
00000380: 37af 7f3d 0357 9e3d 5eb4 55be c69f 9b3d
00000390: 4d82 a63c 8426 2a3e 7158 083e 33a5 033e
000003a0: 4b60 153d e721 1fbe 6453 033e 2886 233d
000003b0: ea3a 523e 1622 83bb 9376 61bd 38a8 fb3d
000003c0: aca6 343e 9a01 053d ff96 353e a318 58bc
000003d0: 5283 473e 8091 2bbd 5add 9f3d 8b2a 4a3d
000003e0: de6e 13bd d91f 553e 8d72 763d 82c1 213d
000003f0: f47e a33c 4893 bfbd 91d4 143e c4dd 413e

fusion_net.0.bias f4 [128]
-0.014951772 -0.18853371 -0.124244355 -0.101399325 -0.025143117 -0.05864109 -0.1151587 -0.087378986
0.1446521 0.19232099 0.08765765 0.07815743 -0.010328424 -0.1355711 0.0064504426 -0.19718283
0.02603721 0.014432667 0.019601375 0.048505306 -0.029765693 -0.07066927 -0.04668849 -0.14277576
-0.05291078 0.043288596 -0.12307002 -0.03574434 0.196144 -0.08740199 0.16686319 -0.19529486
-0.0050777113 0.040200613 -0.07329622 -0.037052665 -0.0659519 -0.04134252 -0.1607851 0.03929679
0.041678496 0.013975762 0.057370424 -0.07430093 -0.16076258 0.0867003 0.025395902 -0.1605704
-0.098205514 -0.042552207 0.051244244 -0.07883455 -0.018725567 0.033812407 -0.2029096 -0.046466943
-0.13134177 -0.09894222 -0.060668014 0.034945007 -0.06085567 -0.13569798 -0.056193873 0.13935524
-0.005474663 -0.095913365 -0.13421273 -0.039267406 -0.08877158 0.0668557 0.009090904 0.089459464
-0.03511558 0.051761195 0.10265018 0.025810204 -0.011589766 -0.10581531 -0.13472533 -0.013337721
0.077049464 0.026152397 -0.017646672 -0.1891064 -0.029858856 -0.07360587 0.032372206 -0.09933531
-0.03948921 -0.027700627 -0.038529005 -0.112275064 0.07441491 0.048340537 -0.16682091 0.101714216
-0.055517696 0.06859966 0.055397976 0.008904652 -0.08413575 0.087656684 -0.0011805997 0.07816857
0.00212571 -0.060943045 -0.03001013 0.014002772 -0.11748382 -0.11000778 -0.01685606 -0.026839461
0.10580781 0.041147787 0.10590319 -0.14105871 -0.102559015 0.10265193 0.001569294 0.07745876
-0.07868736 -0.09577064 -0.1534917 -0.019127509 -0.07168603 -0.18016921 0.110900395 0.019455427
00000000: 47f8 74bc fb0e 41be d373 febd 73aa cfbd
00000010: f0f8 cdbc a431 70bd 53d8 ebbd c1f3 b2bd
00000020: ae1f 143e cbef 443e db85 b33d 0111 a03d
00000030: 8d38 29bc 27d3 0abe 3c5e d33b 4cea 49be
00000040: fd4b d53c fe76 6c3c 1093 a03c 80ad 463d
00000050: 2fd7 f3bc 0dbb 90bd 6e3c 3fbd cf33 12be
00000060: f9b8 58bd 624f 313d 220c fcbd a868 12bd
00000070: f9d9 483e d1ff b2bd 2fde 2a3e 60fb 47be
00000080: ee62 a6bb 66a9 243d 541c 96bd 89c4 17bd
00000090: ca11 87bd c656 29bd d9a4 24be acf5 203d
000000a0: 12b7 2a3d 98fa 643c 40fd 6a3d 162b 98bd
000000b0: f29e 24be ed8f b13d 110b d03c 916c 24be
000000c0: f91f c9bd 394b 2ebd 7ce5 513d 0274 a1bd
000000d0: 5c66 99bc e17e 0a3d 89c7 4fbe 1f54 3ebd
000000e0: 757e 06be 38a2 cabd 067f 78bd 7f22 0f3d
000000f0: cc43 79bd 69f4 0abe 8c2b 66bd 24b3 0e3e
00000100: cd64 b3bb 3a6e c4bd 106f 09be dcd6 20bd
00000110: e0cd b5bd a4eb 883d 04f2 143c 8636 b73d
00000120: 5bd5 0fbd 8c03 543d 423a d23d ec6f d33c
00000130: 00e3 3dbc b2b5 d8bd 70f5 09be 7586 5abc
00000140: 1ccc 9d3d 8d3d d63c c18f 90bc 1ca5 41be
00000150: 8f9a f4bc adbe 96bd b898 043d 5070 cbbd
00000160: 70bf 21bd 6dec e2bc 97d0 1dbd 78f0 e5bd
00000170: d866 983d ba00 463d 1ad3 2abe 8b4f d03d
00000180: 8666 63bd fb7d 8c3d fde8 623d d1e4 113c
00000190: 5d4f acbd 5985 b33d 5abe 9aba d816 a03d
000001a0: 7f4f 0b3b 6a9f 79bd ced7 f5bc e26b 653c
000001b0: 5b9b f0bd c24b e1bd b815 8abc 6ede dbbc
000001c0: c4b1 d83d 958a 283d c6e3 d83d b271 10be
000001d0: 760a d2bd 2d3b d23d c5b0 cd3a b3a2 9e3d
000001e0: d726 a1bd 6623 c4bd ee2c 1dbe 4bb1 9cbc
000001f0: 20d0 92bd 477e 38be bf1f e33d fd60 9f3c

fusion_net.2.weight f4 [1, 128]
-0.0043769632 -0.2835806 -0.41774842 0.027946834 -0.073148705 0.5305124 0.030497774 -0.35031652
-0.24220476 -0.4776229 0.15698217 0.12252003 0.3203095 -0.2565848 0.14697692 -0.29247916
-0.0054186853 -0.0040179873 -0.00033614365 0.39995995 0.28939846 -0.0064723394 0.094729796 -0.40510908
-0.07409583 0.37204298 -0.03250633 -0.023996886 -0.6719381 0.07180678 -0.5371821 -0.2823533
0.05825171 0.290239 0.3171819 -0.007639878 0.025294282 0.045916896 -0.15700933 0.022415059
-0.011251721 0.031668942 -0.21827537 -0.03593358 -0.39078775 0.30704686 0.23303273 -0.2624167
-0.01987945 -0.19486496 0.2468274 0.38541058 -0.4249803 0.11471291 -0.33340016 0.63164717
-0.36951277 -0.02887237 0.46586177 0.22578117 -0.2426869 -0.2668377 0.026152497 -0.044398952
0.020202702 -0.35256043 -0.4289793 -0.018768562 0.03384669 0.3224229 0.25379208 0.22153997
0.29054374 0.14284742 -0.13039598 0.16556612 0.26782128 -0.054686707 -0.32765266 -0.19845976
-0.16250718 0.23732936 -0.12448595 -0.41591817 -0.09459225 0.041838586 0.01851942 0.012989685
-0.06426703 0.4252702 0.01102391 -0.3163784 0.2983227 0.08942638 -0.08779848 -0.18310481
-0.0021435143 0.13565521 0.19710234 0.12905018 -0.012346329 0.2980194 0.02695164 0.3225801
-0.008542692 -0.06834165 -0.15744972 0.46167704 -0.30859214 0.19461355 0.0009757907 -0.016408455
0.42770046 -0.5779122 0.1638946 -0.17265646 -0.33950508 0.034568317 0.055704996 0.32045415
0.0012300736 -0.07442477 -0.26674485 -0.06465045 -0.058309212 -0.5007811 0.18774003 0.002036442
00000000: a16c 8fbb 7a31 91be 1fe3 d5be c2f0 e43c
00000010: fdce 95bd a9cf 073f 78d6 f93c b05c b3be
00000020: 8604 78be fd8a f4be efbf 203e c8eb fa3d
00000030: 9bff a33e 155f 83be 1e81 163e d4bf 95be
00000040: 3a8f b1bb 52a9 83bb 703c b0b9 8dc7 cc3e
00000050: 092c 943e eb15 d4bb b201 c23d 756a cfbe
00000060: 8ebf 97bd 6b7c be3e 5c25 05bd 1e95 c4bc
00000070: 2304 2cbf 6f0f 933d c484 09bf 9d90 90be
00000080: 5899 6e3d 359a 943e aa65 a23e f157 fabb
00000090: f435 cf3c 5b13 3c3d 0ec7 20be c99f b73c
000000a0: 2359 38bc 4bb7 013d 9483 5fbe 172f 13bd
000000b0: 5515 c8be 3f35 9d3e 22a0 6e3e 7b5b 86be
000000c0: 3ada a2bc ae8a 47be 52c0 7c3e 8954 c53e
000000d0: 0597 d9be 9aee ea3d 6db3 aabe a1b3 213f
000000e0: c730 bdbe c085 ecbc 6f85 ee3e 2e33 673e
000000f0: ea82 78be f39e 88be c33d d63c addb 35bd
00000100: 2380 a53c cd82 b4be 2da3 dbbe 87c0 99bc
00000110: d4a2 0a3d 9d14 a53e 09f1 813e 60db 623e
00000120: 26c2 943e 9846 123e 8686 05be 2a8a 293e
00000130: df1f 893e 2bff 5fbd 17c2 a7be 0939 4bbe
00000140: 4868 26be 7806 733e 7df2 febd 3af3 d4be
00000150: 95b9 c1bd f05e 2b3d 0ab6 973c b0d2 543c
00000160: 6f9e 83bd 04bd d93e a19d 343c 5afc a1be
00000170: c1bd 983e 2e25 b73d b1cf b3bd d47f 3bbe
00000180: 347a 0cbb 33e9 0a3e 32d5 493e bb25 043e
00000190: 4248 4abc 0096 983e b0c9 dc3c 3829 a53e
000001a0: a6f6 0bbc b5f6 8bbd 803a 21be ef60 ec3e
000001b0: caff 9dbe c648 473e 35cc 7f3a 066b 86bc
000001c0: 8efb da3e 0ef2 13bf fcd3 273e dbcc 30be
000001d0: 9cd3 adbe 8297 0d3d ec2a 643d 9112 a43e
000001e0: 6c3a a13a 046c 98bd c892 88be 7567 84bd
000001f0: a4d5 6ebd 3133 00bf ec3e 403e d475 053b
